QML-mnist/model/qmodel-mnist2.pth (torch, 26747 bytes, 7 tensors)

ql1.ql1.weights f4 [1, 8]
5.333101 2.9422174 4.3616023 1.4555296 4.0733576 2.8549774 2.3920245 4.7124124
00000000: c3a8 aa40 4a4d 3c40 3f92 8b40 cb4e ba3f
00000010: f258 8240 f3b7 3640 ee16 1940 15cc 9640

conv1.weight f4 [16, 4, 3, 3]
-0.06869445 -0.108841024 -0.05448306 0.076948054 0.14577654 0.13546298 0.096193455 -0.10797477
0.13631894 0.04607634 0.02571837 -0.10498748 -0.09161382 0.026398629 -0.03315298 -0.057441127
-0.1379759 0.12742014 0.060097024 0.011301961 0.018741291 0.1164574 -0.13348009 -0.011540528
0.15019234 -0.03697522 -0.12289468 -0.12343269 0.1080943 0.11779412 0.12440898 -0.07183384
-0.09826495 -0.15846945 0.025244394 -0.033522356 0.13586763 -0.11146607 -0.13846835 0.036076605
-0.08115127 -0.03730268 0.15085159 0.0642253 -0.19419019 -0.02310947 -0.006528501 0.1608355
-0.17838459 0.07900777 -0.1809181 -0.19147941 -0.09808057 -0.18638302 -0.027246935 0.12782566
-0.07738153 -0.14112397 -0.011796081 -0.16675504 0.07025893 0.0048138504 0.15885755 0.059269425
0.05247064 0.057104573 0.13940926 -0.121733636 -0.12297017 0.13112167 0.041302383 0.17195742
0.0045497883 0.027862968 0.1326921 0.13664259 0.08865508 -0.1648575 0.0150480075 -0.13533807
0.039717842 0.0627706 -0.061772652 0.14694516 0.16854693 0.06575836 -0.14307731 -0.023231052
0.11420125 0.04219843 0.11636117 -0.01047429 -0.06723051 0.11049389 0.05728206 0.09909679
-0.14823525 -0.1638854 0.15135321 0.031728677 0.1510667 -0.14910923 -0.06957392 0.02752355
-0.113509975 0.072885305 0.083708726 0.19137172 0.02424126 -0.18218154 -0.073316246 0.02539158
-0.045246027 0.07393702 -0.039190613 0.107778475 0.13937205 0.19254264 0.027009655 -0.124734715
-0.04789599 -0.10260321 0.06165074 -0.0049515525 0.04036582 0.04321863 -0.026835527 -0.0077690473
-0.03754097 0.03055683 -0.12795478 0.023050664 0.16737759 0.05843412 -0.09434129 0.14376317
-0.08169146 0.17452736 -0.05290277 0.18014105 0.11015733 -0.013804377 0.091134265 0.14762883
-0.12557292 0.013870888 0.09413316 -0.036883567 0.103251 0.13743033 -0.12787838 0.07034428
-0.17452157 0.112056755 -0.09660999 -0.0631145 0.03171694 -0.15179542 -0.024573905 -0.05331323
0.045525134 -0.019554669 -0.1433104 -0.06232125 0.009805713 0.099281356 -0.12572119 -0.08442268
0.10082773 -0.094103694 -0.09344342 -0.16607118 -0.06568652 -0.1570381 -0.0006967864 0.14032254
0.070131965 -0.16412285 0.14834079 -0.16250442 -0.06943677 0.06976278 0.044530682 0.052934047
-0.047095153 -0.15311997 -0.17274466 -0.01365338 -0.19739385 -0.10621193 0.07646267 -0.032753564
0.027977113 -0.13879904 0.05409468 0.17397028 -0.0066408357 0.015892057 -0.1369006 -0.15919346
0.12822981 -0.20639901 -0.03117586 -0.12224589 0.02268507 -0.19815306 0.022658229 -0.024123529
-0.13676238 -0.107713245 -0.11327187 -0.06296618 -0.016602064 0.048434854 -0.1256651 0.026623148
-0.14307036 0.12765805 -0.119069055 0.049637016 -0.11771582 -0.11748335 -0.028749797 -0.12650703
-0.06682495 -0.07769337 -0.0714804 -0.15209219 0.16553868 0.115185775 -0.07064111 0.1519584
-0.10057126 -0.16558982 0.051844127 -0.0651265 0.13869815 -0.058915116 -0.16214545 0.16005383
0.04465615 0.027447896 -0.038060557 -0.14174096 0.022155713 -0.003120919 -0.12789431 0.0849513
-0.17449793 -0.104015596 -0.0731506 -0.15888634 -0.16546662 -0.06785852 -0.06721724 0.08806169
00000000: adaf 8cbd 0be8 debd a129 5fbd f196 9d3d
00000010: 7246 153e cfb6 0a3e 1301 c53d e021 ddbd
00000020: 3197 0b3e 8bba 3c3d 55af d23c ad03 d7bd
00000030: 07a0 bbbd f041 d83c 6bcb 07bd 6347 6bbd
00000040: 8e49 0dbe 6d7a 023e 4c28 763d dc2b 393c
00000050: 5687 993c 3881 ee3d 01af 08be 7c14 3dbc
00000060: 05cc 193e 5473 17bd 35b0 fbbd 47ca fcbd
00000070: 8b60 dd3d 0b3e f13d 23ca fe3d 9f1d 93bd
00000080: 223f c9bd d145 22be 55cd ce3c bd4e 09bd
00000090: e220 0b3e 5348 e4bd a6ca 0dbe 10c5 133d
000000a0: a332 a6bd b2ca 18bd d778 1a3e 8e88 833d
000000b0: cbd9 46be 1250 bdbc 09ed d5bb 10b2 243e
000000c0: 73aa 36be d3ce a13d 9842 39be 2e13 44be
000000d0: 77de c8bd 31db 3ebe f734 dfbc bbe4 023e
000000e0: 357a 9ebd cd82 10be 5a44 41bc d5c1 2abe
000000f0: eae3 8f3d 81bd 9d3b 8eab 223e 7fc4 723d
00000100: 74eb 563d 7ce6 693d 4dc1 0e3e 7c4f f9bd
00000110: c9d7 fbbd c244 063e b02c 293d 9b15 303e
00000120: 6416 953b e140 e43c 70e0 073e 09ec 0b3e
00000130: cb90 b53d 68d0 28be eb8b 763c 1096 0abe
00000140: 2daf 223d df8d 803d 5205 7dbd cb78 163e
00000150: 9197 2c3e 52ac 863d dc82 12be 0c4f bebc
00000160: 58e2 e93d 43d8 2c3d c44e ee3d 5b9c 2bbc
00000170: 26b0 89bd 9f4a e23d 98a0 6a3d 42f3 ca3d
00000180: fbca 17be 93d1 27be 56fc 1a3e eef5 013d
00000190: 3bb1 1a3e 17b0 18be c57c 8ebd 1179 e13c
000001a0: eb77 e8bd e444 953d 7b6f ab3d f3f6 433e
000001b0: 9b95 c63c cc8d 3abe d426 96bd 0102 d03c
000001c0: e653 39bd 4b6c 973d 5686 20bd f6ba dc3d
000001d0: 8cb7 0e3e e629 453e 5a43 dd3c ea74 ffbd
000001e0: 962e 44bd a221 d2bd 7d85 7c3d a240 a2bb
000001f0: a156 253d 0506 313d 2ed6 dbbc 7e93 febb
00000200: 8fc4 19bd 5152 fa3c 9406 03be bfd4 bc3c
00000210: 0865 2b3e 9e58 6f3d 0236 c1bd a736 133e
00000220: da4d a7bd 4db7 323e 93b0 58bd e576 383e
00000230: 2b9a e13d c12b 62bc 9aa4 ba3d 032c 173e
00000240: 3096 00be b942 633c e3c8 c03d 3913 17bd
00000250: 4375 d33d 89ba 0c3e 8df2 02be a910 903d
00000260: c8b5 32be 037e e53d 75db c5bd 2d42 81bd
00000270: 9fe9 013d 4270 1bbe 374f c9bc f95e 5abd
00000280: 9078 3a3d 1d31 a0bc f6bf 12be 9144 7fbd
00000290: 24a8 203c 0654 cb3d 0ebd 00be cce5 acbd
000002a0: c57e ce3d 70b9 c0bd 445f bfbd 900e 2abe
000002b0: a786 86bd 98ce 20be 8ba8 36ba b6b0 0f3e
000002c0: 59a1 8f3d d20f 28be a6e6 173e 8f67 26be
000002d0: de34 8ebd cadf 8e3d ce65 363d 5fd1 583d
000002e0: d9e6 40bd 7bcb 1cbe fae3 30be 6db2 5fbc
000002f0: 9d21 4abe a485 d9bd 7698 9c3d 9a28 06bd
00000300: 4230 e53c 5621 0ebe 6292 5d3d 4425 323e
00000310: 5e9b d9bb 0f30 823c ac2f 0cbe 9c03 23be
00000320: ad4e 033e 435a 53be 8464 ffbc 0e5c fabd
00000330: 0ad6 b93c a3e8 4abe c09d b93c b59e c5bc
00000340: 700b 0cbe c398 dcbd 15fb e7bd 6af4 80bd
00000350: 0d01 88bc a063 463d 5aae 00be ca18 da3c
00000360: 0981 12be cbb8 023e 7ada f3bd 2f50 4b3d
00000370: fe14 f1bd 1c9b f0bd b284 ebbc 0f8b 01be
00000380: 85db 88bd b41d 9fbd 5164 92bd 0ebe 1bbe
00000390: f982 293e 85e6 eb3d 49ac 90bd fc9a 1b3e
000003a0: 4ef8 cdbd 6190 29be 825a 543d 0b61 85bd
000003b0: e306 0e3e fa50 71bd 7509 26be 27e5 233e
000003c0: 5ee9 363d 69da e03c 63e5 1bbd 8b24 11be
000003d0: e67f b53c 5588 4cbb baf6 02be f2fa ad3d
000003e0: 96af 32be 2106 d5bd fbcf 95bd 1ab3 22be
000003f0: 1570 29be 68f9 8abd 31a9 89bd b059 b43d

conv1.bias f4 [16]
0.08979731 -0.02405129 -0.048680276 0.06476287 0.015447521 -0.048274342 -0.070645 0.09619692
0.11601228 0.18228294 -0.025844691 -0.06916021 -0.06869294 -0.08491597 0.18301424 -0.049016174
00000000: a7e7 b73d 3607 c5bc f864 47bd 65a2 843d
00000010: 9917 7d3c 51bb 45bd 53ae 90bd e402 c53d
00000020: d997 ed3d 61a8 3a3e 3fb8 d3bc dea3 8dbd
00000030: e2ae 8cbd 6de8 adbd 1668 3b3e 2fc5 48bd

fc1.weight f4 [20, 256]
-0.037587047 0.041853227 0.051675733 -0.055332016 -0.023108123 0.026445644 0.00989465 -0.032394297
-0.052768674 -0.019265147 0.004933626 -0.03117058 -0.07460621 0.04269652 0.052654784 0.0072897202
0.0136607485 -0.0103969 -0.025985884 -0.076011494 0.057471383 -0.08423652 -0.062152408 0.038102623
-0.039469644 0.0041839173 0.006780585 -0.0733366 -0.030998558 -0.029970603 -0.019612037 -0.013970838
0.10067767 -0.0014507906 0.05496273 -0.05702929 -0.03615637 0.03069496 0.031852055 -0.03627822
0.013120439 -0.017808467 0.05007383 -0.062234804 0.023878736 -0.0063174996 -0.0889842 -0.00031326688
-0.03845332 0.023353098 -0.01568884 -0.012839763 -0.00071907917 0.045376297 -0.014783571 0.027515031
0.014850077 0.0083846105 0.012909305 -0.027961124 -0.05119605 -0.047242463 -0.026478216 -0.029834194
0.0060359244 -0.020175444 -0.05076573 0.019020911 0.018160835 0.079128735 0.0032030763 -0.0112716155
0.02799527 -0.030152583 0.013382435 0.036990397 0.034992237 -0.027053522 -0.00014809844 0.039987717
0.011585576 0.011911902 0.06389501 0.032453947 -0.03339036 0.07979932 0.001522514 0.016363623
0.075456105 -0.04274167 0.059618667 0.02101698 -0.02116146 -0.018266948 0.055622146 0.047612254
-0.0367509 0.048874866 0.028715586 0.05786782 0.040743966 -0.014615278 0.06763448 -0.0002052588
-0.0012955202 0.0039181905 0.023319883 -0.015849449 -0.08777726 0.014185783 0.078705415 0.012199138
-0.034830622 0.019761125 0.004814159 0.03707999 -0.09015527 0.018456226 -0.03915269 -0.011415045
0.040680103 0.035642967 -0.012909057 0.05503577 0.023270626 -0.041295566 0.03760886 0.018193481
-0.012470417 0.061257575 0.07502997 0.047420274 -0.0042268042 -0.07307464 0.06832776 -0.017184222
0.010493952 -0.05110038 0.05496175 0.025417756 0.0854743 0.060334675 -0.074038096 0.05100296
-0.09392925 -0.03451331 0.031727403 -0.03082377 0.017437195 0.0018916766 0.037472367 -0.031169595
0.07252424 -0.0036548246 0.043337993 0.021951342 -0.018518804 -0.0023521325 0.07843352 -0.037304875
-0.0126535725 -0.05092257 -0.0673695 0.024503073 0.004504604 0.036749545 0.02975876 -0.00049979024
0.061417304 -0.005329332 0.04436079 0.049557086 0.024015078 0.03743872 -0.023480237 0.074453495
0.044191502 -0.03833428 -0.028908517 0.05627183 -0.0009372649 -0.038945366 -0.030262392 0.0012776953
-0.015282847 0.044108167 -0.02364064 0.00034116238 0.051125947 -0.030330991 -0.021722304 -0.00015002173
0.07369483 0.05280662 -0.029728863 -0.034286223 0.010052268 -0.03065228 0.036873594 0.051099624
-0.0012559944 -0.025239613 0.031672392 -0.020039383 0.04478007 0.024177015 0.08072627 -0.014501658
0.009562272 -0.017211242 0.059424713 0.053913232 0.017522983 -0.02221174 -0.027133172 0.055358697
-0.008459616 0.0326655 0.0025405602 0.020500127 -0.037232194 -0.01891278 -0.0046770456 -0.009551338
-0.05791922 0.008884279 -0.04017221 0.002590402 0.030449398 0.053181592 -0.0033191645 -0.016847003
-0.015145875 0.006547578 -0.028960664 0.0269622 0.038491834 0.0910274 0.047407776 -0.0075893495
0.05392976 -0.030403333 0.049359135 -0.009277649 0.074573666 -0.024239996 0.035816867 0.0384347
-0.00876412 0.039914064 -0.04067612 0.031139042 -0.022012763 -0.040130585 -0.048185736 0.013221607
00000000: e0f4 19bd 4a6e 2b3d efa9 533d d3a3 62bd
00000010: 3f4d bdbc 89a4 d83c 2c1d 223c e2af 04bd
00000020: f723 58bd f1d1 9dbc 41aa a13b 7259 ffbc
00000030: 24cb 98bd 8ce2 2e3d 8bac 573d 9bde ee3b
00000040: 55d1 5f3c c257 2abc 59e0 d4bc eaab 9bbd
00000050: 1d67 6b3d 3284 acbd 8693 7ebd 7f11 1c3d
00000060: ecaa 21bd 3e19 893b ab2f de3b 8031 96bd
00000070: b0f0 fdbc e984 f5bc 6ca9 a0bc f1e5 64bc
00000080: 1830 ce3d 7428 beba 9920 613d 8b97 69bd
00000090: b418 14bd ff73 fb3c 4d77 023d 7998 14bd
000000a0: 1cf7 563c 10e3 91bc 371a 4d3d ece9 7ebd
000000b0: 579d c33c 0703 cfbb 593d b6bd f83d a4b9
000000c0: 3a81 1dbd ff4e bf3c e285 80bc df5d 52bc
000000d0: 9680 3cba 7fdc 393d ca36 72bc 3467 e13c
000000e0: bd4d 733c 9b5f 093c 8d81 533c ba0e e5bc
000000f0: f3b2 51bd 5081 41bd d8e8 d8bc d766 f4bc
00000100: 01c9 c53b f946 a5bc baef 4fbd bed1 9b3c
00000110: 08c6 943c 3f0e a23d b4ea 513b 95ac 38bc
00000120: 5656 e53c 8d02 f7bc 0042 5b3c 3e83 173d
00000130: 0554 0f3d 599f ddbc df4a 1bb9 29ca 233d
00000140: 6ed1 3d3c 232a 433c 63db 823d 6eee 043d
00000150: 55c4 08bd d36d a33d 188f c73a 010d 863c
00000160: bb88 9a3d e411 2fbd b432 743d cd2b ac3c
00000170: cc5a adbc 91a4 95bc 0cd4 633d 1105 433d
00000180: 1d88 16bd 0331 483d f33c eb3c cf06 6d3d
00000190: 25e3 263d eb74 6fbc f283 8a3d bd3a 57b9
000001a0: 72ce a9ba 2a64 803b 5709 bf3c b4d6 81bc
000001b0: 90c4 b3bd 7d6b 683c 4e30 a13d e5de 473c
000001c0: 8eaa 0ebd 15e2 a13c 18c0 9d3b 30e1 173d
000001d0: 54a3 b8bd 8331 973c 925e 20bd 2b06 3bbc
000001e0: 2ea0 263d 5cfe 113d 8280 53bc 306d 613d
000001f0: 0aa2 be3c 8a25 29bd bf0b 1a3d 7f0a 953c
00000200: b850 4cbc 39e9 7a3d 50a9 993d c33b 423d
00000210: 0181 8abb 28a8 95bd 6def 8b3d edc5 8cbc
00000220: d3ee 2b3c a24e 51bd 921f 613d e638 d03c
00000230: 260d af3d 7e21 773d 49a1 97bd 7be8 503d
00000240: fb5d c0bd d45d 0dbd 98f4 013d 2282 fcbc
00000250: 73d8 8e3c 22f2 f73a a07c 193d 6157 ffbc
00000260: 9787 943d c885 6fbb 2e83 313d 4dd3 b33c
00000270: bfb4 97bc 3c26 1abb c1a1 a03d ffcc 18bd
00000280: ee50 4fbc 2f94 50bd 05f9 89bd abba c83c
00000290: 5b9b 933b b186 163d a5c8 f33c 5b04 03ba
000002a0: b690 7b3d ada1 aebb a9b3 353d 5ffc 4a3d
000002b0: 45bb c43c 5859 193d a059 c0bc 137b 983d
000002c0: 2602 353d 6804 1dbd 8ed1 ecbc 4a7d 663d
000002d0: c8b2 75ba 2d85 1fbd d6e8 f7bc 5778 a73a
000002e0: e864 7abc c4aa 343d 04aa c1bc 0ade b239
000002f0: 7169 513d b378 f8bc f9f2 b1bc 274f 1db9
00000300: 51ed 963d c14b 583d f289 f3bc b66f 0cbd
00000310: 45b2 243c 7e1a fbbc c408 173d d74d 513d
00000320: 2ea0 a4ba 4ec3 cebc e9ba 013d a229 a4bc
00000330: 4f6b 373d e00e c63c d153 a53d 5d98 6dbc
00000340: 13ab 1c3c 97fe 8cbc 5467 733d 1fd4 5c3d
00000350: 5c8c 8f3c 65f5 b5bc 6346 debc cdbf 623d
00000360: 349a 0abc 42cc 053d 877f 263b e2ef a73c
00000370: c980 18bd f9ee 9abc e741 99bb 377d 1cbc
00000380: b43c 6dbd 5e8f 113c 9e8b 24bd bcc3 293b
00000390: 0471 f93c f1d4 593d 5786 59bb ba02 8abc
000003a0: 6726 78bc 118d d63b ea3e edbc d5df dc3c
000003b0: 9da9 1d3d 936c ba3d a82e 423d 14b0 f8bb
000003c0: 74e5 5c3d 6910 f9bc ce2c 4a3d 4801 18bc
000003d0: 14ba 983d f592 c6bc b5b4 123d b46d 1d3d
000003e0: 6297 0fbc ee7c 233d 019c 26bd 4e17 ff3c
000003f0: 1c54 b4bc f85f 24bd 685e 45bd 709f 583c

fc1.bias f4 [20]
-0.03552341 -0.0082633635 0.039503574 0.040271383 0.008331656 0.008375894 -0.014774628 -0.016790489
0.06236646 -0.019205242 -0.012318031 0.054759886 0.06378344 -0.011708065 -0.010408997 -0.04006728
0.034346066 -0.015640603 -0.02587376 -0.044271674
00000000: ff80 11bd 0f63 07bc 80ce 213d 9bf3 243d
00000010: 8081 083c 0c3b 093c 4811 72bc 358c 89bc
00000020: f973 7f3d 5054 9dbc 91d1 49bc e74b 603d
00000030: e4a0 823d 2fd3 3fbc 7f8a 2abc 971d 24bd
00000040: 76ae 0c3d b920 80bc 35f5 d3bc 3756 35bd

fc2.weight f4 [10, 20]
-0.08351179 0.06408908 -0.23157951 0.11595521 -0.2335635 0.22980781 -0.19824588 0.23922938
-0.060314383 0.13756208 -0.04455868 -0.16855693 -0.05057442 0.06461146 0.13955486 0.20533861
-0.04651832 0.06750913 0.13183929 -0.09700022 -0.112675704 0.13891248 -0.071518295 0.038579505
0.11963897 -0.06909291 -0.0859803 0.22479464 0.10790631 -0.27603784 -0.26108366 -0.01045966
-0.19801919 0.1981164 0.17983069 0.16659209 0.2101694 0.16098753 0.21695934 -0.018705098
0.19962703 0.10382822 0.10929553 -0.111972414 0.113396205 -0.21288557 0.005511519 -0.11813305
0.050530657 0.019935707 0.013897609 0.2577723 -0.22215167 -0.23324351 -0.00021266766 -0.15381554
-0.13993457 -0.1485098 0.1859036 -0.17114651 -0.22081321 0.19056216 -0.16622844 -0.042841844
-0.13489096 0.066751555 0.20212334 -0.11868091 -0.15840192 0.08937177 -0.14007941 0.09323125
0.15727572 0.21080045 0.010028372 0.22735526 -0.06289393 0.093855254 -0.062517054 -0.15502061
0.08270723 0.07463345 0.12196241 0.1494351 -0.0004025545 0.09620016 0.17481993 -0.21580648
-0.06376056 0.1316023 -0.030644171 0.17751727 0.13222107 -0.13792907 0.18194708 -0.12727107
0.16685313 0.19724579 0.09982579 0.18888918 0.006298226 -0.19259581 0.1930831 0.029587818
-0.1002451 -0.019852238 -0.13995987 0.12231005 -0.20919146 0.11376053 -0.24345948 -0.13416226
0.16865185 -0.008681428 0.16883044 0.19212686 -0.07582777 0.007908384 -0.17142172 -0.08182709
0.10640683 -0.102507904 0.20375448 0.13457604 0.15298542 0.18855983 0.0014691878 -0.027482372
-0.03623816 0.23505935 0.1957465 -0.1819155 0.066348225 -0.124987155 0.19167297 -0.1772159
-0.19131637 0.03909364 -0.18113853 0.21598914 0.22347912 -0.19528417 -0.034028605 -0.040602196
-0.22922018 -0.1798275 0.22754133 0.16320246 -0.08424401 0.10219325 -0.10486157 0.058892604
-0.0130772665 0.06735764 -0.14648488 0.20332432 -0.029055744 0.24658504 -0.14249188 -0.035952907
0.16087459 -0.20521227 0.03201427 0.10196991 0.00061916804 -0.17597884 -0.15586913 0.0743557
-0.23545046 -0.14420813 0.14614287 -0.08613411 -0.25708362 -0.104658596 0.034714345 -0.08251603
-0.1263714 -0.16040652 0.20841582 0.20613587 -0.13818856 0.112608805 0.22176789 -0.081088684
0.09685893 -0.22009502 0.20172045 -0.1646093 -0.22212587 -0.13933553 -0.2398517 0.17135398
-0.18871605 -0.2071577 0.06361406 0.11586527 -0.10764008 0.11876087 -0.034456033 -0.13652791
00000000: 3b08 abbd 2341 833d 2e23 6dbe ed79 ed3d
00000010: 452b 6fbe bd52 6b3e f800 4bbe 8cf8 743e
00000020: 370c 77bd 13dd 0c3e 2a83 36bd 309a 2cbe
00000030: 1f27 4fbd 0353 843d 78e7 0e3e 4944 523e
00000040: fe89 3ebd 3a42 8a3d e100 073e 0da8 c6bd
00000050: 85c2 e6bd 133f 0e3e 2f78 92bd 8b05 1e3d
00000060: 4705 f53d 9580 8dbd 7116 b0bd 9130 663e
00000070: fcfd dc3d d554 8dbe c2ac 85be fe5e 2bbc
00000080: 8bc5 4abe 07df 4a3e 8925 383e 1e97 2a3e
00000090: a636 573e ead9 243e 972a 5e3e 6f3b 99bc
000000a0: 076b 4c3e e4a3 d43d 56d6 df3d cb51 e5bd
000000b0: 453c e83d adfe 59be f999 b43b beef f1bd
000000c0: 3cf9 4e3d 3550 a33c ccb2 633c bbfa 833e
000000d0: ba7b 63be 63d7 6ebe 8aff 5eb9 d281 1dbe
000000e0: 024b 0fbe f412 18be 835d 3e3e 0841 2fbe
000000f0: dc1c 62be ba22 433e ca37 2abe ee7a 2fbd
00000100: db20 0abe 0ab5 883d 6cf9 4e3e fa0e f3bd
00000110: 1d34 22be 8c08 b73d fa70 0fbe 07f0 be3d
00000120: e30c 213e 13dc 573e 0a4e 243c d1cf 683e
00000130: 88ce 80bd 2f37 c03d f108 80bd b9bd 1ebe
00000140: 6862 a93d 6cd9 983d 6ec7 f93d 8405 193e
00000150: f30d d3b9 9704 c53d ff03 333e 60fc 5cbe
00000160: e594 82bd c1c2 063e 7c09 fbbc 16c7 353e
00000170: f664 073e 473d 0dbe 5650 3a3e 5953 02be
00000180: 8cdb 2a3e cdfa 493e 7771 cc3d 2a6c 413e
00000190: 5961 ce3b d637 45be 93b7 453e 2762 f23c
000001a0: 4e4d cdbd 29a1 a2bc a451 0fbe b17d fa3d
000001b0: 4936 56be 48fb e83d 714d 79be d561 09be
000001c0: 12b3 2c3e 8c3c 0ebc e3e1 2c3e e7bc 443e
000001d0: 974b 9bbd 2b92 013c 2d89 2fbe f694 a7bd
000001e0: d3eb d93d aaef d1bd 04a5 503e 4dce 093e
000001f0: 36a8 1c3e d415 413e c391 c03a b622 e1bc
00000200: 776e 14bd 66b3 703e c571 483e 0f48 3abe
00000210: 94e1 873d 44f9 ffbd eb45 443e 1678 35be
00000220: 70e8 43be a720 203d 617c 39be 422c 5d3e
00000230: b6d7 643e 93f8 47be 9461 0bbd 7d4e 26bd
00000240: b2b8 6abe b324 38be 9800 693e 8c1e 273e
00000250: 2088 acbd b24a d13d aac1 d6bd 5f39 713d
00000260: 0842 56bc cdf2 893d 2200 16be 4034 503e
00000270: 5006 eebc ca80 7c3e 64e9 11be 5b43 13bd
00000280: 4fbc 243e 2a23 52be 6521 033d 9ad5 d03d
00000290: aa4f 223a cc33 34be 289c 1fbe cd47 983d
000002a0: ed19 71be 4cab 13be 7aa6 153e 1567 b0bd
000002b0: 77a0 83be 3f57 d6bd a130 0e3d 2afe a8bd
000002c0: 8167 01be 9b41 24be f56a 553e 4815 533e
000002d0: 4d81 0dbe 729f e63d 1f17 633e d311 a6bd
000002e0: fa5d c63d 9760 61be ce8f 4e3e 578f 28be
000002f0: f774 63be f9ad 0ebe af9b 75be 6b77 2f3e
00000300: c83e 41be 2621 54be 1748 823d c54a ed3d
00000310: 6772 dcbd e638 f33d c521 0dbd f9cd 0bbe

fc2.bias f4 [10]
0.08941753 0.11340477 -0.19306853 -0.19038345 -0.030730186 -0.16489534 -0.16686994 0.03305221
0.011222195 0.07425607
00000000: 8a20 b73d c340 e83d c2b3 45be e1f3 42be
00000010: dfbd fbbc 53da 28be f4df 2abe c161 073d
00000020: 4cdd 373c 9113 983d
