QML-mnist/model/qmodel-mnist.pth (torch, 26683 bytes, 7 tensors)

ql1.ql1.weights f4 [1, 8]
000000 c0 5f 43 40 37 e4 9c 40 d1 6e 0b 3f 9a 30 55 3f
       3.052719 4.9028583 0.5446597 0.83277285
000010 32 aa fc 3f 97 07 7a 40 6e c4 44 40 15 c9 b3 40
       1.973944 3.9067132 3.074489 5.618296

conv1.weight f4 [16, 4, 3, 3]
000000 51 49 28 bc 2d e7 b3 3c 98 6e 05 bd bf 23 6a bc
       -0.010271386 0.02196082 -0.032576174 -0.014290749
000010 6b ff 0b be 9a 73 d5 bd d6 d8 6a bd e4 c9 cc bc
       -0.13671653 -0.1042244 -0.057335697 -0.024998613
000020 d4 16 bb 3d 48 f7 06 3e 02 c9 12 be bc 11 71 bd
       0.091352135 0.13180268 -0.14334491 -0.058854803
000030 54 9c da 3d ff e5 2e 3e ad 6b 41 bd 56 dd 21 3e
       0.106743485 0.17079924 -0.04722183 0.15807089
000040 d7 8f ac 3a c6 3d 37 3d 83 c2 3e 3e fe 2e 23 be
       0.0013165426 0.044736646 0.18628888 -0.15935895
000050 92 c0 ef bd da a4 a2 bc 1b 75 1f bd cb d2 38 3e
       -0.11706652 -0.019853998 -0.03893004 0.18049161
000060 7e 5f 02 be 16 62 d9 bd 6d 70 fe bd 99 34 32 be
       -0.1273174 -0.106144115 -0.12423787 -0.17402877
000070 d1 43 cd bd 6d 0b 50 3e b4 b4 00 3e d7 e9 d1 3d
       -0.100227006 0.20316859 0.12568933 0.102496795
000080 08 04 e4 3c dc ab ad bd 4c c1 8d 3c 64 1e 12 be
       0.027833953 -0.08480045 0.017304085 -0.14269406
000090 bb 76 fd bd 05 ff a6 bd 11 59 d3 3d 94 2c ca 3d
       -0.12376162 -0.0815411 0.103197224 0.09871784
0000a0 75 6e a5 bd 17 8c 08 bc 89 b1 d2 3d 7c 9a 2e 3e
       -0.08077709 -0.008334181 0.102877684 0.17051119
0000b0 29 e6 7c 3d 74 da 38 3c 09 75 f2 3d e5 4f ea bd
       0.061742935 0.011282552 0.11838729 -0.1144102
0000c0 bd 3a c5 3c 1f c0 26 be 11 ab 0b be cd cb bb bd
       0.02407586 -0.16284226 -0.13639475 -0.09169731
0000d0 0e 2e 98 3d d6 dc 6f 3d fd c6 f6 bd ec 6c 4c 3d
       0.07430659 0.058560215 -0.12049673 0.049908563
0000e0 2e c5 c8 3d bb 8e e4 bc 2a 65 ab 3c 48 8b 46 3d
       0.09803234 -0.02790009 0.020922262 0.048472673
0000f0 09 72 c1 3d cd a8 2d 3e 81 a6 f2 bd 6e d8 35 bd
       0.094455786 0.16958924 -0.11848164 -0.044395857
000100 d5 14 8f 3d a7 6d 05 3e 3f b3 04 3e 2a 59 ff 3d
       0.06986395 0.1303011 0.12959002 0.124681786
000110 e9 f1 b1 3b 4f c1 0e be dd d7 b5 3c a4 58 ce bd
       0.0054304493 -0.13940929 0.022197658 -0.100755006
000120 b6 92 27 be 15 41 07 3e 82 81 0b 3e af 0d 21 be
       -0.1636456 0.1320842 0.13623622 -0.15727876
000130 88 11 50 3d 5f 18 0d bd 9a 41 1c bd 4d 65 c3 bd
       0.05079797 -0.03444707 -0.0381485 -0.09540806
000140 48 6b 9c 3d 91 7b f3 bd 19 6e 23 3d 99 60 d1 3d
       0.0763765 -0.11888803 0.03989992 0.10223503
000150 d3 96 ff 3d 85 84 e2 3d a3 7b 34 be dd fc 9d bd
       0.12479939 0.11060432 -0.17625289 -0.077142455
000160 54 02 95 3d c1 a9 4d 3d be 95 08 be 66 1f 09 be
       0.07275835 0.050210718 -0.13338372 -0.13390884
000170 f7 cd 26 3e fc d6 04 3e 3f e2 ef bc 4d 83 36 bd
       0.16289507 0.12972635 -0.029282687 -0.044558812
000180 e7 25 4b be 05 45 2a bd 57 4e e9 bd 53 f8 00 be
       -0.19838677 -0.04156973 -0.11391895 -0.12594728
000190 24 b5 af bb b4 02 48 3d 05 18 77 bd 4c 62 f4 3d
       -0.00536217 0.048830703 -0.06032564 0.11932811
0001a0 52 56 de bd 3c 19 10 3e e3 b2 eb 3d fc 2a 0e be
       -0.10856308 0.14072126 0.11508729 -0.13883585
0001b0 f4 21 35 bd 90 f5 13 3c 4e 7e 08 3d 0b 67 48 3d
       -0.044221833 0.009030715 0.03332358 0.048926394
0001c0 1b c1 9f 3d 1d 3c 02 3c ad 03 ac bd ea 8a 88 3d
       0.07800504 0.007948902 -0.083991386 0.06667121
0001d0 5a 70 18 be 7a a4 fb bd d8 8d 04 ba df fc 96 bd
       -0.14886609 -0.12287231 -0.0005056537 -0.0737245
0001e0 d8 ef 1d bd ea db 0f be 25 e9 48 bd d0 e1 fb 3c
       -0.03855881 -0.14048734 -0.04905047 0.030747324
0001f0 f5 4c 18 be 98 1a 3a 3c fb ca dd 3d 40 42 72 bd
       -0.14873107 0.0113588795 0.10829731 -0.059145212
000200 37 c1 5b 3c 3b 03 84 3b fe 8c 6f 3d a2 37 d0 3d
       0.013412765 0.0040287054 0.05848407 0.10166861
000210 d5 5f 3f 3e c5 3f a8 3d e8 0e 45 3e c7 cc b3 bc
       0.18688901 0.08215288 0.19243968 -0.021948231
000220 28 17 54 be 60 0d 93 bd 23 82 f3 3d 67 b1 0f 3c
       -0.20711958 -0.071802855 0.11890056 0.008770323
000230 50 15 dc bd 15 60 17 be 09 1b 40 be 0c 55 07 be
       -0.107462525 -0.14782746 -0.18760313 -0.13216037
000240 61 8e 13 bd be 27 ad 3d 14 0a c0 3d 76 0a 20 be
       -0.036024455 0.08454846 0.09376922 -0.1562899
000250 e9 23 e8 3d 61 30 09 be 27 8b 20 bd 60 da c1 bd
       0.11334974 -0.13397361 -0.039195206 -0.0946548
000260 28 b0 f0 bc 85 a9 ea bb a5 6f 39 be 70 bc 21 be
       -0.029380873 -0.0071613216 -0.18108995 -0.1579454
000270 8d 30 b1 bc fe d6 b7 3c 46 ac 95 bd 49 f2 af 3d
       -0.021629596 0.022441383 -0.07308249 0.08591134
000280 3f 60 27 be 16 41 70 bb 03 74 1c 3e 1f 2c b8 bd
       -0.16345309 -0.0036659888 0.1527863 -0.089927904
000290 bd 0f 28 3e a4 0d a4 3d 0a 8c fd bd 47 e2 00 3e
       0.16412254 0.08010414 -0.12380226 0.12586318
0002a0 b4 d9 00 bd 92 f8 ce bd 0e 88 29 3e 09 ab 1e be
       -0.031457618 -0.10106005 0.16555807 -0.15494932
0002b0 18 1e ba bb 65 24 b3 bc fb c2 f8 3d 9f 71 7b 3d
       -0.005679857 -0.02186794 0.121465646 0.061387654
0002c0 5b 81 b8 3d cc 70 59 3d b5 8e 9f bd 8e 51 4a bd
       0.090090476 0.053086087 -0.07790891 -0.049394183
0002d0 9b 77 0a be bc cd cd 3d 34 7b 0b 3e fc be f3 3d
       -0.13522188 0.10049006 0.13621217 0.11901662
0002e0 6a b7 fb bd 7d 51 da 3b e1 b8 fe bd bd b1 a6 bd
       -0.12290843 0.006662546 -0.124376066 -0.0813937
0002f0 73 1f c0 bd 98 fe 1e 3d 2b c7 c4 bd c0 4f 1d bc
       -0.093809985 0.03881702 -0.09608301 -0.009601533
000300 5c 10 09 3c e8 cc 09 3e 5d 13 d0 bd ad 61 1b be
       0.008365717 0.13457072 -0.10159943 -0.15173979
000310 40 01 c4 bd 92 9a 01 3e f4 26 b1 bd 0d 3b 16 3e
       -0.09570551 0.1265662 -0.08650008 0.14670964
000320 fd 8b ad 3d 3e bd 8b ba 4e db 42 bd 4e dc a4 bd
       0.08473966 -0.0010661257 -0.047572426 -0.08049832
000330 a5 30 07 3d 66 e5 ea bc 39 3d b9 bb 78 94 a7 bc
       0.033005375 -0.028673839 -0.0056530503 -0.020456538
000340 cc 7c 02 be db 6e af bd 16 80 11 3e c9 85 0c be
       -0.12742919 -0.08566066 0.14209017 -0.1372291
000350 da 0e cc bc 8b e6 20 3e d6 8a ab 3d 39 ec 3b ba
       -0.024909426 0.15712945 0.0837609 -0.0007168684
000360 b0 4e ec bd 5a 05 88 3d c1 df 18 be 02 6a 9d bd
       -0.11538446 0.06641646 -0.14929105 -0.07686235
000370 a7 f4 0b bd c9 f2 95 3b 8c ea ee 3c 82 85 03 3e
       -0.034168866 0.0045760614 0.029164575 0.12843898
000380 95 ab 39 bc fe 54 38 3e 68 c0 bc 3d 33 89 04 be
       -0.011332412 0.18001172 0.09216386 -0.12942962
000390 21 62 da 3d 1d 62 b7 bd 0d 76 40 bd 8e c7 9b 3d
       0.10663248 -0.089542605 -0.046987582 0.076064214
0003a0 c4 11 2a 3d fd 01 14 3e 12 50 a9 bc 0c 66 ab ba
       0.04152085 0.14453883 -0.020668063 -0.0013076677
0003b0 09 04 d5 3d 9f a4 50 be 93 ba 09 3e 4e 6a e2 bd
       0.1040116 -0.20375298 0.13450079 -0.11055432
0003c0 25 86 e6 3c e0 20 6e bd a6 66 12 be e9 36 53 3d
       0.028140137 -0.05813682 -0.1429697 0.05156604
0003d0 81 c3 19 3e 49 f3 50 bc d1 bd a2 bd 06 80 9b bc
       0.15015985 -0.012753316 -0.07946361 -0.018981945
0003e0 ee 9d 14 be 1f f0 d1 3d ff 85 fc bd 05 ee 17 be
       -0.1451337 0.102508776 -0.12330245 -0.14836891
0003f0 b9 24 85 bd 2c 81 eb 3d 52 f2 65 3d 23 38 df 3d
       -0.06501145 0.11499247 0.056139298 0.10899379

conv1.bias f4 [16]
000000 1e 93 cf 3c 3e 43 a6 bd c7 3e 58 3d a8 1d ce 3d
       0.025338706 -0.08118294 0.052794244 0.1006425
000010 52 f7 14 3e 88 58 19 3e dd 38 df bb 49 f6 f4 bd
       0.1454747 0.14975178 -0.0068121986 -0.11961038
000020 08 19 bf bd f4 7a 29 3e f6 5b f5 3d 9d cd e5 3d
       -0.09330946 0.16550809 0.11980431 0.11220858
000030 3c e5 c7 bd 4c 3f 36 3e 9e e2 36 3e d6 8e 32 3e
       -0.0976052 0.17797583 0.17859885 0.174373

fc1.weight f4 [20, 256]
000000 66 99 28 bd 22 00 9b 3c 79 5f 93 bd 88 01 02 3d
       -0.041161917 0.018920962 -0.07195944 0.03173974
000010 ac e8 08 bd c9 28 be bb 51 3c fc 3c 18 5d 06 3d
       -0.03342502 -0.005803202 0.03079048 0.032803625
000020 c4 ae ce bc 09 a1 6d bd 35 61 70 39 94 76 97 bd
       -0.02522982 -0.058014903 0.00022924396 -0.07395664
000030 fc 13 20 3d 99 d7 df bc 0e a5 2e ba a4 6e ad 3d
       0.03908156 -0.027324485 -0.00066621683 0.08468369
000040 08 d4 b5 ba ce 86 4f 3b 03 65 39 3d 6e 7d 95 ba
       -0.0013872394 0.0031666043 0.045262348 -0.0011405179
000050 b3 af df bc 71 ab 70 3d 4a 87 8c 3c 66 97 96 bd
       -0.02730546 0.05875725 0.017154355 -0.07353096
000060 b3 68 ce bc 43 42 28 bc 47 92 6b 3d 5a 4a 10 bc
       -0.025196409 -0.010269704 0.057512548 -0.008806789
000070 6d 3b fa bc 62 e8 c9 bc 3d c6 04 3d a6 92 7c 3c
       -0.030545915 -0.024646942 0.032415617 0.015415823
000080 40 03 5b 3d 72 da 9b 3c 2d 81 85 3b 59 3a 92 bc
       0.053469896 0.019025061 0.004074237 -0.017850088
000090 1c d4 92 bc b1 c1 6e bd 66 8e 00 bd b0 b3 a2 3c
       -0.017923407 -0.058290187 -0.0313858 0.019861072
0000a0 64 96 75 3c 58 cc d2 3c 67 77 08 3d da c0 bf 3b
       0.014989469 0.025732204 0.033316996 0.005851847
0000b0 0c fe 8a bd 0b 66 45 3d 98 33 da 39 ac 17 5c 3d
       -0.06786737 0.04819302 0.0004161864 0.053733513
0000c0 98 8c 82 bd bb c5 2a bc 32 89 91 3d 22 e7 99 3c
       -0.063744724 -0.010423119 0.07106246 0.01878697
0000d0 e2 22 d1 3c ab ce f9 bb 5b 85 99 bd 4f 82 e0 3c
       0.025529329 -0.0076235137 -0.07496139 0.027405886
0000e0 4e 24 b9 3c 04 8e 2d 3d 4c 93 01 bd 0e 3a e2 3c
       0.02260032 0.042371765 -0.031634614 0.027615573
0000f0 77 d6 50 3c a9 be 9f bb fc 77 8f 3d 22 00 a4 bd
       0.012746445 -0.0048750234 0.07005307 -0.08007838
000100 95 8f 95 3c b0 a7 ab 3d e8 80 23 bd c9 8e c1 3d
       0.018256942 0.08381593 -0.039917856 0.09451062
000110 5b 45 a6 bc 79 12 af 3d eb 33 7d bd b2 4e a9 3c
       -0.020296743 0.08548445 -0.06181709 0.020667408
000120 af 5f 86 3c 7d be 0f 3c 8b 71 14 3d d3 f4 96 3d
       0.016403047 0.008773443 0.036241096 0.07370915
000130 7b 57 02 bb d1 22 76 39 a7 a1 0f 3d 98 0c 8b bc
       -0.0019888568 0.00023473358 0.035066273 -0.016973779
000140 74 08 2d 3d b0 8a 0f bd 62 c3 79 bb b9 b2 3d b8
       0.04224439 -0.035044372 -0.0038110842 -4.522756e-05
000150 f7 04 0e 3d b4 ae aa 3d 2f 9a cc 3c 8f 3e 81 bd
       0.034672704 0.08334103 0.024975864 -0.0631076
000160 44 c3 82 3d a5 d9 0b 3d c4 61 83 3d 7e 54 e8 bc
       0.063849 0.03414311 0.06415132 -0.028360602
000170 e0 8b 74 3c 22 27 4d 3d 93 9e c1 bb ed 21 43 bd
       0.014925927 0.050086148 -0.005908796 -0.047639776
000180 ea 46 79 3d da a1 9a bd 48 ac 09 3d 66 e8 12 bd
       0.060858645 -0.07550402 0.033611566 -0.035866164
000190 12 00 d6 bc 58 22 a8 3d 91 fc 84 bd 6f 9e 0c bc
       -0.02612308 0.082096756 -0.06493486 -0.008582695
0001a0 6b bf 48 bd f0 6b 50 bc d9 41 b3 3c b0 14 c8 3d
       -0.049010675 -0.012721047 0.021881985 0.09769571
0001b0 ee 22 a5 bb 8c 8e f0 b9 9d ef b1 ba c3 9c e2 bc
       -0.0050395643 -0.00045882573 -0.0013575439 -0.02766264
0001c0 0a 86 a6 bd 90 a0 69 bd 05 5c d6 3c 04 e6 8e bd
       -0.08131035 -0.05703789 0.026166925 -0.06977466
0001d0 35 f7 7c 3d 9f 61 0b 3c 82 61 82 3d 12 f2 20 3d
       0.061759192 0.008507161 0.063662544 0.039293356
0001e0 2f 33 c4 3c ff 69 4b bd 17 57 fb 3c 9e 3a 91 bd
       0.023950187 -0.049661633 0.030681176 -0.070912585
0001f0 6d 64 31 bc f0 41 84 3d 1b dc 13 3d 2e 5c 79 bd
       -0.010827166 0.06457889 0.03609858 -0.060878925
000200 43 17 8d 3c 90 bb d4 bc 2e 8d bf bc 07 ea db 3c
       0.017223006 -0.025968343 -0.02338275 0.026844991
000210 a8 08 2c bd bd fb 90 bc ae e0 7d bc 36 67 ed 3d
       -0.042000443 -0.017698163 -0.015495462 0.115919515
000220 a5 61 4c bd b7 2b c0 bd f2 d0 f8 ba 1a 69 5a bd
       -0.04989781 -0.09383338 -0.0018983169 -0.05332289
000230 89 01 51 bd 3b fd f3 bb 72 0a 87 3d 59 4e 78 bd
       -0.051026855 -0.007445959 0.06593789 -0.060621593
000240 c0 26 fe 3c ba bd 4f 3d 1f 7c 7c 3d 59 f5 df bc
       0.031024337 0.050718047 0.06164181 -0.02733867
000250 5d 72 ab 3b 0e 36 b1 bb ae 51 1b bd 67 15 a9 bb
       0.005232139 -0.005408055 -0.037919693 -0.005160022
000260 86 9a 49 3d be d1 1b 3d 34 c4 df 3c c0 74 a8 3c
       0.04921963 0.038041823 0.027315237 0.020563483
000270 94 cd 13 bd ba a9 79 3d e8 dd 77 bb ee 2d 56 bd
       -0.036084726 0.06095288 -0.0037821475 -0.052289896
000280 36 43 07 3d f8 44 32 3d 64 4c 3c bd fe a3 98 3c
       0.03302308 0.043522805 -0.04597129 0.018632885
000290 42 ec 94 3c 01 ba 25 bd 21 7f 10 3d bc 90 b0 3d
       0.018179063 -0.04046059 0.03527749 0.08621356
0002a0 a7 4f c2 bd c5 42 f8 bc 40 90 94 bb 0f 7e 0c bc
       -0.09487849 -0.030305276 -0.0045337975 -0.008574977
0002b0 58 37 ba 3c c7 fb 56 3c ad 27 ee 3c 10 3e c1 bc
       0.022731468 0.013121552 0.029071653 -0.023589164
0002c0 b3 6d 8b 3d 6b 3f 6b bd 18 58 77 3d 14 5a c5 bd
       0.06808033 -0.057433527 0.060386747 -0.09636322
0002d0 30 c2 c9 bc 59 ad 9a 3d 4e e2 24 bc 24 12 82 3c
       -0.024628729 0.07552595 -0.010063721 0.01587779
0002e0 1d c5 91 bd fb 44 62 bd be cb 7d 3b 58 0d 27 bd
       -0.071176745 -0.055241566 0.0038726176 -0.04078421
0002f0 82 14 75 3c c2 4f 0b 3d c0 59 0b bd 8e 67 79 3c
       0.014958503 0.03401161 -0.03402114 0.015222443
000300 27 3c bf 3c f7 de ac bc 34 aa ba bc 6e c3 11 bd
       0.023344113 -0.021102412 -0.022786237 -0.035586767
000310 bd c8 6e bd 19 e7 53 bd 14 13 50 bd b4 62 34 bd
       -0.058296908 -0.051734064 -0.050799444 -0.044039443
000320 a5 93 b7 3d 3e 13 5e bd 8b 34 f1 3c a2 1d 74 bd
       0.08963708 -0.05421757 0.029444 -0.059598573
000330 e4 6a e8 bc 05 71 19 3d 22 53 f8 3d 32 a9 88 bd
       -0.028371282 0.0374613 0.12125231 -0.066728964
000340 23 1e c4 3c 59 44 53 3d c8 e6 60 bb 49 74 3b bd
       0.023940152 0.051578853 -0.0034317244 -0.045765195
000350 75 a4 b5 3c 6c 61 a9 bd 41 20 79 3d 5d 61 9d 3d
       0.022173146 -0.08270535 0.060821775 0.07684586
000360 52 85 9b bd 1d b6 d1 3c a2 30 d6 bb 43 de 39 3c
       -0.07593788 0.025599534 -0.006536559 0.011344495
000370 96 6e 99 3d 2d b7 f9 ba dd 21 a0 3c 04 54 31 bb
       0.07491796 -0.0019051783 0.019547397 -0.0027058134
000380 fd ff d3 3c e2 10 6b bc 83 4d 8f bc 46 f3 07 bd
       0.0258789 -0.014347287 -0.017493015 -0.033190988
000390 66 95 6b 3d 59 09 19 3c d0 dc bc 3d ae 80 fa bb
       0.057515524 0.009340608 0.09221804 -0.0076447343
0003a0 80 dc 0c bd 53 34 83 bb 8a 10 2d bd 57 74 c1 3c
       -0.034389973 -0.0040040403 -0.0422521 0.023615045
0003b0 16 0c 29 3d b5 8e 9a bc f2 1b 12 3c d6 a8 41 3c
       0.04127129 -0.018866876 0.0089177955 0.011820039
0003c0 78 70 32 3c 24 ea 80 3d df 26 68 3d da 85 3b 3d
       0.010891072 0.06294659 0.056677695 0.045781948
0003d0 d8 da 82 bc 00 90 b7 3c d9 b6 ea 3c a1 50 b0 3d
       -0.015973493 0.022407532 0.028651642 0.08609129
0003e0 05 96 8b 3c 34 c5 49 3b 7f 3b 8a 3c a4 7f 8d 3d
       0.017039308 0.0030787708 0.016874073 0.06909111
0003f0 6a 43 87 3c 5c 32 fc 3b 6a 2e 4a 3d 80 de 86 bd
       0.016511638 0.007696433 0.04936067 -0.06585407

fc1.bias f4 [20]
000000 de 13 bd 3c b1 57 4f bd af ab 3b bd cf 3c be bc
       0.023080762 -0.05062074 -0.045818027 -0.023222355
000010 f1 05 34 bd 46 3a 99 3c 76 d9 39 3d 1e 8c 44 3c
       -0.04395098 0.018704545 0.045373403 0.011996297
000020 0b af 05 3c f1 fc 92 3c 23 a8 ce 3c 16 96 d1 bb
       0.008159409 0.017942877 0.025226658 -0.0063960655
000030 29 48 57 bc 19 66 02 bd ff 46 c8 3b 3b 32 57 3d
       -0.013139763 -0.03183565 0.006111979 0.052538138
000040 92 c9 bb 3b 22 ed 66 3d 49 1e cc 3c cb f8 2b bd
       0.005730816 0.05637849 0.024916785 -0.041985314

fc2.weight f4 [10, 20]
000000 b7 26 9e 3d a7 02 b3 3d 34 65 fd bd 56 a1 78 bc
       0.07722228 0.0874074 -0.123728186 -0.015175184
000010 7d 52 38 bd 26 ac bc 3d 8e b7 44 3e 0e af b8 bd
       -0.045000542 0.09212522 0.19210646 -0.09017764
000020 b6 00 36 3e af d2 11 3e 47 cc 80 be d4 71 4a 3e
       0.17773709 0.14240526 -0.2515585 0.19769984
000030 f3 b3 a5 3b 7d 73 28 3e 42 75 5b 3e 64 58 73 be
       0.005056852 0.16450305 0.21431449 -0.23764187
000040 93 cf 52 be a9 d0 89 bc c9 7a 96 3c e7 d8 38 bd
       -0.20586996 -0.01682313 0.018369095 -0.04512873
000050 7f 39 95 be aa dc 2e 3e be 6c 23 be 73 fb b7 3d
       -0.2914543 0.17076364 -0.1595945 0.08983507
000060 80 20 52 3e 8c 31 c6 bd 4a f9 0c 3e d3 1c 84 3d
       0.2052021 -0.09677419 0.13766971 0.0645081
000070 09 35 0c be 32 a3 71 3c 3a 1c 7a 3d 3f a2 e2 3d
       -0.13692106 0.014748381 0.061062075 0.11066102
000080 a8 60 33 be e7 d5 3b 3e 61 e7 0a be 1f 90 5f be
       -0.1751734 0.18343316 -0.13564827 -0.21832322
000090 b7 1c be bd 64 ce 87 be 47 ab f1 3d 0f f2 b6 3b
       -0.09282821 -0.2652465 0.11800247 0.005583055
0000a0 a6 8d 01 bd 60 7f 35 be a8 ce d4 3d 5c 38 5d 3d
       -0.031629227 -0.17724371 0.10390979 0.054008827
0000b0 ad 68 b2 bd cc 8c 6c 3d b9 87 37 3d fe 79 1f be
       -0.087113716 0.057751462 0.04480717 -0.1557388
0000c0 b8 16 d0 bd fb 11 0c be f0 61 50 3e 4a 74 50 3d
       -0.10160583 -0.13678734 0.2034986 0.050892152
0000d0 0b d7 49 be b2 f9 08 3e 17 df f1 bc 45 5a 4b 3b
       -0.19710939 0.13376501 -0.029525323 0.0031029147
0000e0 9f 84 23 3c a1 8f 13 bd 35 dc 5a 3e 9f 02 fb 3d
       0.00998035 -0.036025647 0.21373065 0.12256359
0000f0 03 a1 41 3d c7 fa 96 bd b5 51 4a 3d bd 78 2f be
       0.047272693 -0.07372051 0.04939433 -0.17135902
000100 23 e2 51 bd 8b 89 c4 3d 6b 07 7c be 9b e7 df 3b
       -0.05124105 0.09596547 -0.24612205 0.0068330294
000110 62 dd 53 bd 3f a4 10 3e 04 0d 1e be 58 c8 7e 3c
       -0.0517248 0.14125155 -0.15434653 0.015550695
000120 87 83 90 bd f5 93 4b 3e cd 47 a3 bc b6 6d 2b be
       -0.07056337 0.1988066 -0.019931698 -0.1674107
000130 38 db 8e bd 2d a4 29 3e d9 0c f8 3d 58 13 1a 3d
       -0.069754064 0.16566534 0.121118255 0.037616104
000140 ec 4e 2f 3e 0b 7c b8 3d 4e 30 46 bc b9 5f 03 be
       0.1711995 0.09008034 -0.012096478 -0.12829484
000150 15 fd 77 be 03 05 e0 3d 57 2d 40 3e be 3f c0 bd
       -0.24217637 0.10938456 0.18767296 -0.09387158
000160 1c 18 cf bd d1 27 0c 3d 1a 23 25 3c 57 89 3d 3e
       -0.101120204 0.03421766 0.01007917 0.18509422
000170 3d d8 ca 3c b9 c3 8b 3b 55 40 6d be 8f b7 ba 3d
       0.024761314 0.0042652753 -0.23169072 0.09117042
000180 57 52 8f 3c 31 21 90 3d e4 e8 bc 3d 0a 2d c9 3d
       0.017495317 0.07037581 0.09224108 0.09823044
000190 c5 3d d3 bb c7 30 9f bc ad a0 f8 bd 4c 4e 60 3e
       -0.0064465725 -0.019432439 -0.121400215 0.21904868
0001a0 08 c1 42 3e d9 5d 48 3c dd 56 64 3e 05 8d 49 3e
       0.19018948 0.012229406 0.2229876 0.19682701
0001b0 89 a7 19 3e f5 29 f1 3d a6 99 77 3d ef ff 38 bd
       0.15005316 0.11775581 0.060449265 -0.045165952
0001c0 a7 29 91 3c d7 ad 29 3e 05 df 30 bd ef 17 83 3d
       0.017720057 0.16570221 -0.043181438 0.06401049
0001d0 22 5e af bd 68 30 c8 3c de f4 cc 3d ce ab 16 3e
       -0.08562876 0.024437144 0.10007642 0.14713976
0001e0 be d2 0c 3e 28 7e ae 3d ab 00 69 bd e8 99 54 3e
       0.13752267 0.08520156 -0.056885403 0.20761836
0001f0 cb 8f 0a 3e ec 97 66 3e e2 49 4b be 30 57 14 be
       0.13531415 0.22518891 -0.19852403 -0.14486384
000200 82 3d 6a be 95 e2 16 bc e7 c3 48 3e 30 42 43 be
       -0.22875026 -0.009209295 0.19605981 -0.19068217
000210 c8 4f 8d 3d cc 79 86 bc c8 08 79 be cf 14 12 3c
       0.06899983 -0.0164155 -0.24319756 0.008916094
000220 22 49 0d bd b2 de b7 bd 20 2a 28 be 1a c2 20 3e
       -0.034493573 -0.08978023 -0.1642232 0.15699044
000230 a3 d8 2e bc a5 a2 27 bd 2f ad 2f bd a4 a8 49 bd
       -0.010671767 -0.040926594 -0.04288977 -0.049233094
000240 a1 98 70 bd be e7 1b be 18 99 03 3e d5 bd 1d 3c
       -0.05873931 -0.15225121 0.1285137 0.009627779
000250 bd f7 5e be 1f eb d6 bd 21 6d d0 bc b7 3f 4a bd
       -0.21774192 -0.104940645 -0.025442662 -0.04937717
000260 8f c8 a1 3d ee 5b 71 3e ad 98 2f be db 4d 7a 3c
       0.07899582 0.23570225 -0.17148085 0.015277351
000270 c3 1f 67 3e 8a b1 ed bd be cc 51 be 45 1a 07 3d
       0.2257071 -0.116061285 -0.20488259 0.032984037
000280 8d b7 05 bd 6a 10 86 bc 6f fd 11 3e a4 82 40 be
       -0.03264575 -0.016365249 0.14256833 -0.18799835
000290 77 d3 17 be 6f f2 1f 3e 9c d5 47 be a6 f2 51 bc
       -0.14826761 0.15619825 -0.1951508 -0.0128142
0002a0 47 df bc 3d fc 0b 07 be 93 29 50 be 7d 7c 14 be
       0.09222274 -0.13188165 -0.2032836 -0.14500614
0002b0 6f 01 5f be db b7 5a be 23 6e 20 bd 42 9b 6d be
       -0.2177789 -0.21359198 -0.039167535 -0.23203757
0002c0 b6 ed 22 be 3d c5 48 bb a3 6f 72 3e 8c b5 6a 3e
       -0.15910992 -0.0030635141 0.23675399 0.22920817
0002d0 97 3e 59 3e 43 2d 78 bb 15 b9 22 3e 48 cf a0 bd
       0.21215282 -0.0037868775 0.15890916 -0.07852036
0002e0 fa 57 34 be 42 bd f0 3d 73 c2 c6 3d fd f8 a9 3d
       -0.17611685 0.11754848 0.09705057 0.08299444
0002f0 49 96 ec 3d 0c e4 90 bd e3 5b 3b 3e 58 be e5 3d
       0.11552102 -0.070747465 0.18296771 0.11217946
000300 f6 ff ac bd 94 8c 28 3e 9a 69 5f 3d 2b 3b a3 3c
       -0.08447258 0.16459876 0.05454407 0.019925674
000310 96 46 4c 3c ba ec 53 3e 4d 1e 0f bd 03 09 ab 3d
       0.012468001 0.20695773 -0.034941006 0.08351328

fc2.bias f4 [10]
000000 d6 4c 1a 3e 50 f5 d1 3c a9 3c 40 3e 19 b8 fd bd
       0.15068373 0.02562967 0.1877314 -0.123886295
000010 88 e3 95 bc 16 85 11 3c d1 ba 0f 3c a6 b1 17 be
       -0.018296972 0.008881828 0.008772568 -0.14813861
000020 e9 68 56 3e c1 b9 00 be
       0.20938458 -0.1257086
