QML-mnist/model/qmodel-bear2.pth (torch, 9467 bytes, 7 tensors)

ql1.ql1.weights f4 [1, 8]
0	0x4046f90f	3.1089513
1	0x409b1157	4.8458667
2	0x3f0df71e	0.55455196
3	0x3f53b31f	0.8269519
4	0x3ff8aa79	1.9427024
5	0x407d1f4f	3.955036
6	0x40451e0d	3.0799592
7	0x40b439bd	5.632048

conv1.weight f4 [16, 4, 3, 3]
0	0xbcab1cce	-0.020887759
1	0x3d36bae0	0.04461181
2	0xbd5f61c3	-0.054536592
3	0xbd13884c	-0.036018655
4	0xbe2a0089	-0.16601767
5	0xbdf0355c	-0.117289275
6	0xbd99c268	-0.07507783
7	0x3bffa6fe	0.0078018894
8	0x3d7ad682	0.061239727
9	0x3dc56e28	0.09640151
10	0xbddb1a79	-0.10698409
11	0xbd8f4ef9	-0.06997485
12	0x3d72bb3f	0.059260603
13	0x3e0e7349	0.13911165
14	0xbd181478	-0.037128896
15	0x3dfc3108	0.123140395
16	0xbcfe1224	-0.03101451
17	0x3c8bde84	0.017073877
18	0x3e1da9cb	0.15396802
19	0xbe1bae06	-0.15203103
20	0xbdccf836	-0.1000828
21	0xbcf2d884	-0.029644258
22	0xbd8a1bc5	-0.06743578
23	0x3e148569	0.14504017
24	0xbde380e1	-0.11108566
25	0xbd8357aa	-0.06413205
26	0xbdd1134e	-0.1020876
27	0xbe231db8	-0.15929306
28	0xbda86cd5	-0.08223883
29	0x3e22384c	0.15841788
30	0x3da4fc62	0.08055951
31	0x3db04644	0.08607152
32	0x3c2f0760	0.010682911
33	0xbda75e39	-0.081722684
34	0x3ccf78fd	0.025326246
35	0xbe1b544e	-0.15168878
36	0xbe086895	-0.13321145
37	0xbdab25dd	-0.08356831
38	0x3de44ba9	0.111472435
39	0x3dd44f2f	0.103666656
40	0xbd98eeb3	-0.07467403
41	0xbc68eb90	-0.014216319
42	0x3dc80491	0.09766496
43	0x3e2b274f	0.16714214
44	0x3d90677c	0.07050988
45	0x3cb752b2	0.0223783
46	0x3de9ccae	0.11415993
47	0xbdc258ab	-0.09489568
48	0x3d0a7626	0.03380408
49	0xbe0a9055	-0.13531621
50	0xbde05318	-0.10953349
51	0xbdaebda4	-0.08532265
52	0x3da541fe	0.08069228
53	0x3d8e3047	0.06942802
54	0xbdbc1675	-0.09183971
55	0x3d686cd6	0.05674442
56	0x3dbce7ff	0.09223937
57	0xbca6e595	-0.020373145
58	0x3beadf3a	0.007167724
59	0x3d49cbe0	0.049266696
60	0x3de82e83	0.113369964
61	0x3e268744	0.16262537
62	0xbe0300c6	-0.12793264
63	0xbd5580ae	-0.05212467
64	0x3d8e692e	0.06953655
65	0x3e0e3533	0.13887481
66	0x3e153f86	0.14575014
67	0x3e139c3b	0.14415066
68	0x3d363d71	0.04449219
69	0xbe0d3415	-0.13789399
70	0x3ca675ed	0.020319903
71	0xbdd78515	-0.1052343
72	0xbe1aa5ee	-0.1510236
73	0x3e1836ea	0.14864698
74	0x3e148343	0.14503197
75	0xbe18899e	-0.14896247
76	0x3d4ee272	0.050508924
77	0xbcd306fd	-0.025760168
78	0xbce43a63	-0.027859872
79	0xbd9c4e47	-0.07632118
80	0x3da4645b	0.08026954
81	0xbde67a61	-0.11253811
82	0x3d66d356	0.05635389
83	0x3dc46c99	0.09591026
84	0x3e0622eb	0.13099258
85	0x3d70d5b6	0.05879756
86	0xbe24f7b8	-0.16110122
87	0xbdc36a0f	-0.095417134
88	0x3db89096	0.090119526
89	0x3d4a573a	0.049399592
90	0xbdfc1be7	-0.123100094
91	0xbdb939fb	-0.09044262
92	0x3e2a0000	0.16601562
93	0x3e003331	0.12519528
94	0xbd946536	-0.07245867
95	0xbd4de99b	-0.05027161
96	0xbe3526a7	-0.17690526
97	0xbc39d93b	-0.011343296
98	0xbdf05924	-0.11735752
99	0xbe120cc7	-0.14262687
100	0xbc870649	-0.01648249
101	0x3d09e841	0.03366876
102	0xbd789dcf	-0.060697373
103	0x3dbd846e	0.092537746
104	0xbdd61807	-0.104538016
105	0x3e227539	0.1586503
106	0x3df7256a	0.12067683
107	0xbe090ba5	-0.13383348
108	0xbd26e32b	-0.040743988
109	0x3c3b3567	0.011426306
110	0x3c85505a	0.016273666
111	0x3cf309a8	0.02966769
112	0x3d81c6d1	0.06336749
113	0x3c2b1277	0.010441414
114	0xbda79a1f	-0.08183693
115	0x3dabeac7	0.083943896
116	0xbe238fde	-0.1597285
117	0xbdcaa193	-0.09894099
118	0xbd2c3cde	-0.042050235
119	0xbda21a7f	-0.0791521
120	0xbd70acb8	-0.058758467
121	0xbe096c6c	-0.13420266
122	0xbd1f8ebd	-0.038954485
123	0x3cfa11d5	0.030526081
124	0xbdf138ae	-0.11778389
125	0xbbecd079	-0.0072270003
126	0x3dea77d4	0.11448637
127	0xbd021a46	-0.031763338
128	0x3bd1992e	0.0063964343
129	0xbc32b9e4	-0.010908578
130	0x3d1efc47	0.03881481
131	0x3dd1ee8c	0.10250577
132	0x3e21273d	0.15737624
133	0x3dcd5ace	0.10027085
134	0x3e29cc67	0.1658188
135	0xbc33530d	-0.010945094
136	0xbe21984f	-0.15780757
137	0xbd91abdb	-0.07112857
138	0x3ded525a	0.11587973
139	0x3bae0066	0.005310106
140	0xbdadf4b8	-0.08493942
141	0xbe06a0a0	-0.13147211
142	0xbe293c75	-0.16526969
143	0xbe0c5e3a	-0.1370782
144	0xbd0305bb	-0.031987887
145	0x3dd26b9c	0.10274431
146	0x3da1db2c	0.07903132
147	0xbe2fb8f0	-0.17160392
148	0x3dcd9827	0.100387864
149	0xbe06ce99	-0.13164748
150	0xbd20ec54	-0.03928788
151	0xbd728cc9	-0.059216294
152	0xbd22af04	-0.03971769
153	0xbd18dd7a	-0.03732059
154	0xbe1a99c5	-0.15097721
155	0xbe169cdd	-0.14708276
156	0xbcf2e408	-0.02964975
157	0x3aaff8d2	0.0013425595
158	0xbd95ee97	-0.07320898
159	0x3d911994	0.07084957
160	0xbe1e715b	-0.15472929
161	0xbbc9623e	-0.0061457446
162	0x3e20b662	0.15694574
163	0xbda28706	-0.0793591
164	0x3e29ad2e	0.16569969
165	0x3d8dd9e0	0.06926322
166	0xbe184b57	-0.1487249
167	0x3df0bb41	0.11754466
168	0xbc811df5	-0.015761355
169	0xbdb69137	-0.08914416
170	0x3e0dc411	0.13844325
171	0xbdffc354	-0.12488428
172	0x3b93103e	0.00448802
173	0xbcf1eca8	-0.029531792
174	0x3df1bbbd	0.11803386
175	0x3d418e0d	0.04725461
176	0x3dabe956	0.08394115
177	0x3d870508	0.065927565
178	0xbd3eb2aa	-0.046557106
179	0xbcc8f200	-0.024529457
180	0xbe0fc3b7	-0.14039503
181	0x3da0512f	0.078279845
182	0x3df411b3	0.11917438
183	0x3dccfb4b	0.10008868
184	0xbdd47336	-0.10373537
185	0x3b95ebab	0.004575213
186	0xbdf44699	-0.11927528
187	0xbdbcf8b5	-0.092271246
188	0xbdd08a9a	-0.10182686
189	0x3d60204e	0.05471831
190	0xbdc04451	-0.0938803
191	0x3aa66273	0.0012694135
192	0x3c42a2b4	0.011879612
193	0x3dfbc7a7	0.1229394
194	0xbe06cb09	-0.1316339
195	0xbdf6b6b7	-0.12046569
196	0xbdc8877d	-0.09791467
197	0x3ddfb8c1	0.10923911
198	0xbd894782	-0.06703092
199	0x3e14c26d	0.14527293
200	0x3d7ad0b2	0.061234184
201	0x3cabdeb6	0.02098022
202	0xbc22f708	-0.009946592
203	0xbd18f770	-0.03734535
204	0x3c8564f9	0.0162835
205	0xbcfdde19	-0.030989693
206	0x3be94880	0.0071192384
207	0x3c88f1af	0.016716806
208	0xbe03159d	-0.12801214
209	0xbda4852d	-0.08033214
210	0x3e1088b4	0.14114648
211	0xbe04f1a6	-0.12982807
212	0xbc9f08f5	-0.01941345
213	0x3e20a1a9	0.15686668
214	0x3d8798a1	0.066209085
215	0x3bcbbda1	0.006217674
216	0xbe13a0f3	-0.14416866
217	0x3da4624c	0.08026561
218	0xbdf938e5	-0.12169055
219	0xbd42aaa6	-0.047526024
220	0xbd3e9744	-0.046530977
221	0xbcd7d1bc	-0.026345126
222	0x39e163ef	0.000429898
223	0x3e080c84	0.13286024
224	0x3c92cb5b	0.017919233
225	0x3e17a0ee	0.14807484
226	0x3dc69c10	0.09697735
227	0xbdd92f71	-0.10604752
228	0x3d968a39	0.07350583
229	0xbde625c1	-0.1123767
230	0xbd9728e3	-0.073808454
231	0x3d46bbcf	0.048518952
232	0x3d575329	0.052569542
233	0x3dfc456c	0.12317929
234	0xbd5c4a50	-0.053781807
235	0xbaed7abb	-0.0018118242
236	0x3db491da	0.088168815
237	0xbe22ff83	-0.15917782
238	0x3de478eb	0.11155876
239	0xbe087f99	-0.13329925
240	0x3b935498	0.0044961683
241	0xbcff4f3c	-0.031165712
242	0xbdb90802	-0.090347305
243	0x3cd9df4c	0.026595734
244	0x3e0c504f	0.1370251
245	0xbd542110	-0.051789343
246	0xbdcc481e	-0.09974693
247	0xbd7563f7	-0.059909787
248	0xbe2ad48f	-0.16682647
249	0x3d94b6ad	0.07261405
250	0xbdab4360	-0.0836246
251	0xbddbca47	-0.10731941
252	0xbd93c61d	-0.072155215
253	0x3dd463aa	0.10370572
254	0x3dd51682	0.10404684
255	0x3e14fa53	0.14548616

conv1.bias f4 [16]
0	0xbc494534	-0.012284566
1	0xbda4517c	-0.080233544
2	0x3d1c2eac	0.038130447
3	0x3d86b2bf	0.06577062
4	0x3e10f7fe	0.14157102
5	0x3df846c2	0.12122871
6	0xbce03d02	-0.02737284
7	0xbe0c442c	-0.1369788
8	0xbe1995c7	-0.14998542
9	0x3e1bf7b9	0.15231217
10	0x3d9d0419	0.07666797
11	0x3db5cb7c	0.08876702
12	0xbe0e482d	-0.1389472
13	0x3e24c00a	0.16088882
14	0x3e24eca0	0.1610589
15	0x3e24d5d3	0.16097192

fc1.weight f4 [4, 256]
0	0xbd67ebc3	-0.056621324
1	0xbd1170ab	-0.03550784
2	0xbd3aa9ee	-0.045572214
3	0x3d5738e3	0.052544486
4	0xbcf5a653	-0.029986536
5	0xbd19e4d9	-0.03757176
6	0x3d0641bd	0.032777537
7	0xbc91ab51	-0.017781885
8	0xbcf68f1d	-0.030097539
9	0x3b5fa4c5	0.003412531
10	0xba3e15dc	-0.0007251182
11	0xbd6082e4	-0.054812327
12	0x3d7aac19	0.06119928
13	0xbca91fe5	-0.020645091
14	0x3c2e6e83	0.010646465
15	0x3d42dfe0	0.047576785
16	0x3ce4f0d8	0.027946874
17	0x3cae9d46	0.021315228
18	0x3d64eb06	0.0558882
19	0xba8a2aa8	-0.0010541277
20	0xbce9e0c2	-0.028549556
21	0x3d477f21	0.048705224
22	0x3c5426fe	0.01294875
23	0xbd8356c0	-0.064130306
24	0xbccdad06	-0.025106918
25	0xbd48e2e0	-0.04904449
26	0x3d61931e	0.055071943
27	0xbc929f87	-0.017898334
28	0xbd63f09c	-0.055649385
29	0xbc3f5226	-0.011677301
30	0x3d33ba7b	0.043879014
31	0x3cdc3f41	0.02688563
32	0x3cbc7c50	0.023008496
33	0x3be73514	0.007055888
34	0x3c8b0920	0.016972125
35	0xbc9d9150	-0.01923433
36	0xbd0678e4	-0.032830134
37	0xbd781a35	-0.060571868
38	0xbd231ff8	-0.03982541
39	0x3cf317d8	0.029674456
40	0xbce9673d	-0.02849161
41	0x3c6c64d5	0.014428337
42	0x3ca1f7c7	0.01977147
43	0x3a99a327	0.0011721597
44	0xbd240e48	-0.040052682
45	0x3d63dbd0	0.05562955
46	0xbd16e2a8	-0.03683725
47	0x3d455be3	0.048183333
48	0xbd352d13	-0.04423244
49	0xba0da066	-0.00054026244
50	0x3d2b64db	0.04184423
51	0xbc9885c8	-0.01861848
52	0x3d68f05c	0.05686985
53	0xbd38b0f8	-0.045090646
54	0xbd799252	-0.060930558
55	0xbc9197ac	-0.017772518
56	0x3adc5de9	0.0016812655
57	0x3d60b886	0.054863475
58	0xbd10e172	-0.03537125
59	0x3cce0efe	0.025153633
60	0xbcc22939	-0.023701297
61	0xbb815186	-0.003946486
62	0x3d4b52c1	0.049639467
63	0xbd341dfd	-0.04397391
64	0x3c5d533b	0.013508613
65	0x3d6f4d22	0.05842317
66	0xbc88cf59	-0.016700434
67	0x3d87fb5e	0.06639741
68	0xbd011a51	-0.031519238
69	0x3d888c7b	0.066674195
70	0xbd6460b5	-0.05575629
71	0x3b909db5	0.0044133314
72	0xbc01a670	-0.007913217
73	0x3d0c0d8d	0.03419261
74	0x3cd6f4e5	0.026239822
75	0x3d766213	0.060152125
76	0xbb537226	-0.0032264083
77	0x3be4b345	0.0069793784
78	0x3d26ec32	0.040752597
79	0xbc8400de	-0.016113695
80	0x3d5fa071	0.05459637
81	0xbd0872a2	-0.033312447
82	0xbc5c1876	-0.013433566
83	0xbc26818c	-0.010162722
84	0x3cd7101d	0.0262528
85	0x3d240130	0.040040195
86	0x3b6e9ee4	0.0036410624
87	0xbd40ae39	-0.04704115
88	0x3d3f621c	0.046724424
89	0x3cbef6d1	0.02331105
90	0x3cbb12aa	0.022836048
91	0xbd22a8d5	-0.039711792
92	0x3d10bd46	0.035336755
93	0x3d544d26	0.051831387
94	0x3b01dbee	0.0019814926
95	0xbd57aa61	-0.05265272
96	0x3d1f38c2	0.038872488
97	0xbd34ee06	-0.04417231
98	0x3cc7c981	0.024388077
99	0xbb6c53ab	-0.0036060612
100	0xbc87ccfa	-0.016577233
101	0x3c90de84	0.017684229
102	0xbd891ba8	-0.06694728
103	0x3c411e0f	0.011786952
104	0xbd5f008d	-0.054443885
105	0xbc1651d9	-0.009174787
106	0x3c1e984a	0.009679863
107	0x3d4b4524	0.049626485
108	0xbd00317f	-0.031297203
109	0x3ce743fb	0.028230658
110	0xbc753050	-0.014965132
111	0xbceb8b08	-0.028752819
112	0xbd6aa868	-0.05728951
113	0xbd4de53a	-0.050267436
114	0x3d44e7b8	0.048072547
115	0xbd17f4f3	-0.037098836
116	0xbc061c44	-0.00818545
117	0xbac841c2	-0.0015278386
118	0x3d35f9eb	0.044427793
119	0x3d61af8e	0.055099063
120	0x3d44c4c9	0.04803923
121	0xbd3f446b	-0.046696108
122	0xbc647601	-0.01394415
123	0xbd6eb530	-0.058278263
124	0xbd0ff308	-0.035143882
125	0xbbe82944	-0.0070849974
126	0x3d75f043	0.060043585
127	0xbd370516	-0.044682585
128	0x3d3be4d5	0.045872528
129	0xbcc9f297	-0.024651809
130	0xbc2d0182	-0.0105594415
131	0x3d36e71d	0.044654
132	0xbc6ca140	-0.014442742
133	0xbbefaf18	-0.007314574
134	0xbd278ad9	-0.0409039
135	0x3d6d9175	0.058000047
136	0xbc213374	-0.009838928
137	0xbd3c0ea0	-0.045912385
138	0x3c895f51	0.016769083
139	0xbd4e8a54	-0.05042489
140	0xbd3a6777	-0.045508828
141	0x3bd0dac1	0.0063737337
142	0x3d5ffee1	0.05468643
143	0xbca82e56	-0.020529907
144	0x3ca7ab9f	0.020467578
145	0x3d2270f8	0.039658517
146	0x3d24efe2	0.040267833
147	0xbd0dc042	-0.03460718
148	0xbc14ea17	-0.0090890145
149	0xbc9bfb1a	-0.019040633
150	0xbd5fd7fe	-0.054649346
151	0xbc099097	-0.008396289
152	0x3d2e0b9e	0.042491548
153	0x3d3a97f7	0.04555508
154	0x3be86e95	0.0070932605
155	0x3c3a011e	0.011352805
156	0xbcd49ed5	-0.025954643
157	0x3d31f344	0.043444887
158	0xbcec7ab3	-0.028867101
159	0xbd59c207	-0.053163555
160	0x3c0d1bc9	0.0086125815
161	0x3d2be2d9	0.041964386
162	0xbd6fa2f3	-0.05850501
163	0x3d3df321	0.046374444
164	0x3caac7cc	0.020847224
165	0xbd47ac86	-0.048748516
166	0xbc0d579e	-0.008626847
167	0x3d8335a7	0.06406718
168	0xbd38f7ca	-0.045158185
169	0xbbe6341d	-0.0070252554
170	0x3cb0561e	0.021525439
171	0xbd70bed5	-0.05877574
172	0x3d12ed72	0.035870977
173	0x3cc27161	0.023735704
174	0x3d22d8bb	0.03975747
175	0xbd0c2f0f	-0.034224566
176	0x3d9b3b14	0.07579628
177	0xbd482ef4	-0.048872903
178	0x3d722f63	0.059127223
179	0xbd941027	-0.07229643
180	0xbd66fc6d	-0.056393076
181	0x3cf2dca5	0.029646227
182	0x3cb50575	0.022097329
183	0xbbf0edc2	-0.0073525617
184	0xbcad5497	-0.0211585
185	0xbd03a0f2	-0.03213591
186	0xbcbc5647	-0.022990359
187	0xbd949e6a	-0.072567776
188	0xba612560	-0.0008588638
189	0xba73f25f	-0.00093058305
190	0x3b616ed3	0.0034398332
191	0x3b8f1d88	0.004367534
192	0x3d5d0d18	0.053967565
193	0x3c1b72b0	0.009487793
194	0xbcf5019c	-0.029907994
195	0xbd0f6eb0	-0.03501767
196	0xbd49b370	-0.04924339
197	0xbd61f414	-0.05516441
198	0xbc464b26	-0.012102878
199	0xbc11e83e	-0.0089054685
200	0x3d0c14f1	0.03419966
201	0xbc716225	-0.014732872
202	0x3d522ea8	0.051314026
203	0xbd40f990	-0.047113
204	0x3c1cbdad	0.009566707
205	0x3d676a7c	0.056498036
206	0x3d93efda	0.072234824
207	0xbd364692	-0.044500895
208	0x3c8c3f9f	0.01712018
209	0x3cc92979	0.024555909
210	0xbcc9e045	-0.024643073
211	0xbce43040	-0.027855039
212	0x3cb06af0	0.021535367
213	0xbd61ad41	-0.05509687
214	0x3bff5784	0.007792415
215	0x3d46434c	0.048404023
216	0xbd0d10a0	-0.034439683
217	0x3d88e6c2	0.066846386
218	0x39b68767	0.00034814628
219	0x3cdccc6c	0.026952945
220	0x3d8789c0	0.066180706
221	0xbc4a817b	-0.012359972
222	0x3d2bebe9	0.04197303
223	0xbc077aaa	-0.0082689915
224	0xbce2940e	-0.027658489
225	0xbcb894be	-0.022531863
226	0xba0d7b89	-0.00053971313
227	0xbccb53aa	-0.024820168
228	0x3c96cb54	0.018407501
229	0x3ad45811	0.0016200562
230	0x3d236c7f	0.03989839
231	0xbb86e5c7	-0.004116747
232	0x3bc3788f	0.0059652994
233	0xbc2a4d01	-0.010394336
234	0xbd5c38de	-0.05376517
235	0x3cb99d18	0.022657916
236	0x3c15695e	0.00911936
237	0xbcdb3ea7	-0.026763273
238	0xbd05b695	-0.032644827
239	0x3c762efb	0.015025849
240	0xbc290915	-0.010317107
241	0x3d6a827a	0.05725334
242	0x3c6f3f3d	0.0146024795
243	0x3d100125	0.03515734
244	0x3d133921	0.035943154
245	0x3b502c70	0.0031764768
246	0x3cbe0a26	0.023198199
247	0x3d3e491a	0.046456434
248	0xbaeb3675	-0.0017945307
249	0x3a948663	0.0011331554
250	0x3bc1a40d	0.005909449
251	0x3d5f5699	0.054525945
252	0xbcfc57ac	-0.030803524
253	0xbd0925cc	-0.03348331
254	0x3cd9f13d	0.02660429
255	0xbd4ee6fe	-0.05051326

fc1.bias f4 [4]
0	0x3d4344db	0.047673088
1	0x3d1b45c5	0.037908334
2	0x3d351597	0.044210043
3	0x3cbfacfd	0.023397917

fc2.weight f4 [2, 4]
0	0x3e8a1bec	0.26974428
1	0x3eb27051	0.34851316
2	0xbde17daa	-0.11010297
3	0xbd825a0d	-0.06364832
4	0x3ebc8136	0.3681733
5	0xbc8fa011	-0.01753238
6	0xbeaa01b5	-0.33204427
7	0xbec67519	-0.38761213

fc2.bias f4 [2]
0	0x3e8fa580	0.28055954
1	0x3ed393ea	0.41323787
