QML-mnist/model/qmodel-bear.pth (torch, 9209 bytes, 7 tensors)

ql1.ql1.weights f4 [1, 8]
00000000: 8f51 fe3f a6b9 b43e 4990 9d40 07d4 b640
00000010: c878 903f 3677 c63f dffb 9440 9343 7640
1.986864 0.3529789 4.923863 5.7133822 1.128686 1.550513 4.655746 3.8478744

conv1.weight f4 [16, 4, 3, 3]
00000000: 5a3d 03be d025 05bd 96d0 f93c 4bb3 893c
00000010: c85a fc3d 6067 b83d 0bcc 8e3c ce3f f23d
00000020: 6034 21be ab1f ea3c 2bb9 97bb 634e d9bd
00000030: 9698 f0bc b0c8 50bd 9414 24be 9676 4c3c
00000040: 8817 2a3e 50c1 e5bd cbb1 9cbc 9bdc 1bbd
00000050: 28a5 bebd beb9 993d d866 23be ff38 273e
00000060: 0a08 0ebe 5650 8fbc 2852 f1bd e873 debd
00000070: ccca 023e bbdc 03bd 80a2 973d f6cb 6dbd
00000080: ab7a 6f3b 00f0 acbd ec2c 103e 3484 27be
00000090: c096 05bc b2de 113e 2037 f3bd 203a d5bc
000000a0: 36cc f53c 1bcb 243e ab23 4a3b d8cb 08be
000000b0: b650 efbd 0b0d e63c fa37 113e a80c 24be
000000c0: 9edb fdbd 1033 0abe 8e38 13be 6bb2 5b3c
000000d0: e028 bc3d aa7f 13be a0d3 d3bc 2b5d 2d3d
000000e0: 20d7 413d 9074 923d db8b 1cbd 36ff 41bd
000000f0: 8026 d1bd 66e0 1dbe 0018 d9ba 66ae 523d
00000100: e009 963c 1f8b 0a3e d082 233e 4bee 3e3d
00000110: 3e69 a2bd c3f9 a63d 9e51 923d 60af e0bc
00000120: 88be 0dbe ecaa 16be eecf 0b3e dbfa efbd
00000130: 4ca5 1b3e ee81 0ebe 9b95 99bd ab1e 6ebc
00000140: 27ae 1c3e 36bd e73c 7b20 dcbd bbfa f83d
00000150: 2bf5 193d 6edf e1bd 02a3 293e 170b 0d3e
00000160: 0020 14bc 2b88 0bbc 2eab c23d aba9 603c
00000170: c0f2 c7bc 0640 633d a602 243e 3602 e9bc
00000180: 53fc c23d 56da 89bd 9ea3 16be 7665 8a3c
00000190: 2b8a de3b 2b27 6e3d 5e1f 1abe f0dd 01be
000001a0: 5604 e73b 6b25 473d ca41 1cbe 6a54 01be
000001b0: 8600 dfbd 76d6 a3bd 4f2e 043e c6b5 cc3d
000001c0: 13be 143e 486c 193e b6ee bb3d b8d4 bfbd
000001d0: bea3 20be c38d f8bd b23e 16be 4637 093e
000001e0: 90da b8bd dbc3 d73d c64f 19bd c851 ccbd
000001f0: 0bbd c13c 4b41 44bd ab2b 53bb f64b 383d
00000200: 9c2c 26be 572b 23be 0c87 1d3e 20d9 493d
00000210: 3b0c 06bd 960c c03d c0ee 85bc 909f 4a3d
00000220: 66f3 f2bd 40b6 c5bd 7bde 673d 2bef 863c
00000230: 6021 d1bc 0007 c7bc 16e8 913d 1675 093e
00000240: 2e82 ec3d b375 babd 5e88 8cbd 5b7a 14bd
00000250: 7be1 6cbd 4b30 d3bc c074 68bc eb8a e73d
00000260: 3b93 dfbd 47dc 183e ee70 033e 6068 1e3e
00000270: a612 e83d c039 933d 4852 05be 8ac3 013e
00000280: d276 29be 4026 f53c ff47 283e d6e1 d03c
00000290: 00a4 643c c8d8 d9bd 564b 11be 6034 c03c
000002a0: 06ff 7c3d 9650 bfbd cb84 923c 2bd7 4f3c
000002b0: 388f c5bd f099 073d 5abd 0dbe 6e76 c03d
000002c0: 20ae d1bd 56ac fa3d e82e 0c3e 33e4 c93d
000002d0: ce52 efbd 8eae ed3d 56b7 243b d654 24be
000002e0: 8706 073e 9445 1d3e e06f 973d 6c0e 09be
000002f0: 7b86 31bd 009c 7bbc 7ba7 193e 9319 12be
00000300: e666 f1bd 364d b03d 70b8 633d 609f 4fbd
00000310: 2af2 0ebe ab8e 90bc 6867 d63d 880e 183e
00000320: 80ef 8bbb c07b c8bd b076 453d 1869 003e
00000330: c6cc cdbd f063 1b3d ab76 be3d 2053 c1bc
00000340: e69c 0bbe 0066 b2bd 645a 26be 56e9 8bbb
00000350: d070 f73d 80e7 52bc 6e4a 023e a8ae 08be
00000360: af2e 233e e036 3ebd d023 e7bd 3e44 083e
00000370: a085 12bd 0bf5 87bc eba7 9d3d 40c0 a0bc
00000380: 803f 04bc 00f0 a03d 6052 223e b61f 98bd
00000390: ab02 ca3b c669 41bd 40bd 203c 9668 d03d
000003a0: 80e6 f53d d0f5 06bd b861 bcbd c358 a23d
000003b0: 4b9a f0bd 22fe 28be 43ae 8ebd 98e2 f7bd
000003c0: aba3 e8bd 2608 8e3d 4bc8 1a3d a8ae ae3d
000003d0: 6627 183d a68c 113d 48c9 fb3d cb3a bd3d
000003e0: 2610 f2bd fa6d 1d3e e08a 6e3d 8647 183e
000003f0: 13d5 0d3e 3bb5 6abd 16f4 31bc c6d7 473d
-0.12816373 -0.032506764 0.03049497 0.016809126 0.12322003 0.09004092 0.01743128 0.11828576
-0.15742636 0.028579554 -0.004630228 -0.10610654 -0.029369634 -0.05097264 -0.16023475 0.012479445
0.16610539 -0.11218512 -0.019127747 -0.038052183 -0.09308845 0.07506131 -0.159572 0.16330336
-0.13870254 -0.017494362 -0.11783248 -0.10861951 0.12772673 -0.032192927 0.07404041 -0.05805584
0.0036541622 -0.08444214 0.14079636 -0.16359025 -0.008153617 0.14245108 -0.11875749 -0.026028693
0.030004602 0.16093104 0.0030844014 -0.1335901 -0.11685316 0.028082391 0.1418151 -0.16020453
-0.12395404 -0.13496041 -0.14377043 0.013409237 0.09187484 -0.14404169 -0.025857747 0.04232518
0.0473243 0.07151139 -0.038219314 -0.04736253 -0.102124214 -0.15417632 -0.0016562939 0.05143585
0.018315256 0.13529633 0.1596787 0.046613973 -0.079302296 0.08153107 0.071444735 -0.027427375
-0.13842213 -0.14713639 0.13653538 -0.11717769 0.15199775 -0.13916752 -0.07499238 -0.014533679
0.15300809 0.028288465 -0.10748383 0.12157198 0.037587326 -0.11028944 0.16566089 0.13773762
-0.0090408325 -0.008516352 0.09505306 0.013712327 -0.024407744 0.05548098 0.16016635 -0.028443437
0.09520783 -0.067310974 -0.14710853 0.016894083 0.0067913732 0.058142822 -0.15051028 -0.12682319
0.0070500774 0.04861967 -0.15259472 -0.12629858 -0.10888772 -0.079998896 0.1290829 0.09995608
0.14525633 0.14982712 0.0917639 -0.09366745 -0.15687463 -0.12136414 -0.14672354 0.13399991
-0.090260625 0.10535403 -0.037429594 -0.09976536 0.023649713 -0.04791383 -0.0032222073 0.044994317
-0.16227955 -0.15934502 0.15383548 0.049279332 -0.032726508 0.093774006 -0.016349196 0.049468577
-0.11862831 -0.09653902 0.05660866 0.016471466 -0.02552861 -0.02429533 0.07124345 0.13423571
0.11548267 -0.091044806 -0.068619475 -0.0362495 -0.057832222 -0.025779864 -0.014187992 0.113057934
-0.10916754 0.14927779 0.12836048 0.15469503 0.11331682 0.07188749 -0.13019669 0.12672248
-0.16549233 0.029925466 0.16433714 0.025498312 0.013955116 -0.10637051 -0.14188895 0.023462474
0.061766647 -0.093415424 0.017885586 0.012685577 -0.096464574 0.03310579 -0.13841763 0.09397589
-0.1023829 0.12239902 0.13689768 0.09857979 -0.116857156 0.11605559 0.002513369 -0.16047987
0.13186084 0.15358573 0.07394385 -0.13384408 -0.04334114 -0.0153570175 0.15005295 -0.14267568
-0.117872044 0.08608477 0.055595815 -0.0506891 -0.13959566 -0.017646154 0.10468942 0.14849293
-0.004270494 -0.097892284 0.048208892 0.1254009 -0.10048823 0.037937105 0.09299978 -0.023599207
-0.13634071 -0.08710861 -0.16245419 -0.004269759 0.12082064 -0.012872577 0.12723705 -0.13347876
0.15935777 -0.04643905 -0.112861276 0.13307282 -0.035771966 -0.016596338 0.076980434 -0.019622922
-0.00807178 0.07858276 0.15851736 -0.074279234 0.006164869 -0.047220014 0.009810746 0.10176198
0.12006855 -0.03294927 -0.09198326 0.07927086 -0.11748179 -0.16503194 -0.069668315 -0.12103766
-0.11359342 0.06935148 0.03778867 0.08529407 0.03714695 0.035534523 0.12294251 0.092397295
-0.11819486 0.15373984 0.05823791 0.14871034 0.13850813 -0.05730174 -0.010861417 0.048789762

conv1.bias f4 [16]
00000000: a822 cc3d 565a 153b e8b2 a1bd b663 fd3d
00000010: d3f2 f53d 0baf 8cbd 346c 1abe 8686 a4bd
00000020: 7082 f6bd 9662 dbbc de8a 15be d36f febd
00000030: 404a 543d b6a8 99bc 408f b5bc 56ae d03c
0.09967548 0.002278944 -0.07895452 0.12372534 0.12009206 -0.06869324 -0.15080339 -0.08033471
-0.12036598 -0.026780408 -0.14603755 -0.124236725 0.051828623 -0.018757205 -0.022163033 0.025473755

fc1.weight f4 [4, 256]
00000000: 202c 9f3c e86e 383d 50ab 04bc e064 64bb
00000010: 6e85 6ebd e2a1 76bd 42b2 2dbd e495 073d
00000020: d827 003d f076 b23c 5af6 093d 304f 1abc
00000030: e298 2cbd 8871 373d 0874 6dbc a078 34bc
00000040: 0617 20bd 143d 2e3d a82e 433d 444d f6bc
00000050: 5c67 5c3d ea16 243d bce4 8f3c ecc6 f3bc
00000060: a4cb 2bbd d018 113c 7439 e23c 16ac 27bd
00000070: 5adb 403d 0e94 1e3d c0c0 8c3a ced0 7fbd
00000080: 7e0a 48bd 38da 343d f034 c43b 8004 28bc
00000090: 7263 24bd 408f eebc fee9 553d 98bd f33c
000000a0: 70ac a13b c252 433d f471 15bd 20d8 acbc
000000b0: 4895 b53c bcdb 42bd 4a99 623d cace 253d
000000c0: 18b3 2a3c 307a 4abd 22a6 3f3d 54be b9bc
000000d0: 0872 22bc 2c6b 553d e042 60bc 24e8 723d
000000e0: 70db d3bb f646 19bd c8bb 66bc d483 6ebd
000000f0: 2212 1c3d a0f2 f23c 8802 3a3c 4827 60bd
00000100: f8fc a43c b061 113d 40d5 5b3d 14b2 d7bc
00000110: c00a ce3c 8c9b ef3c 2083 01bc 9059 b83b
00000120: 3acd 213d c009 aa3b a42c 97bc e017 c53c
00000130: e03b 893b dc96 abbc 3089 cfbb 92ec 143d
00000140: 9419 7d3d ac2b 87bc 2caf 463d f814 773d
00000150: b66b 163d 10a8 fb3c 9411 58bd 649c ecbc
00000160: d033 d3bc 8239 793d 6074 223c d8a6 59bd
00000170: e656 63bd 181a 5cbd ccb7 39bd 7e9a 1abd
00000180: 1a59 08bd e04f 3e3d 7c1a d2bc 0a74 6b3d
00000190: 902a 6abc 6cd0 4ebd 74cb bbbc 60fe e2bc
000001a0: cefc 2fbd a2c7 6ebd 00c0 0e3b d6be 46bd
000001b0: e455 93bc f893 86bc f8d2 13bd 0029 1bbb
000001c0: 1e5d 46bd 1872 a6bc 4498 623d fcc3 6c3d
000001d0: 6003 a53b b020 6e3c 9e69 633d 2ad3 753d
000001e0: 4c60 f1bc 10ec 213c 88a5 4abc 9899 2fbd
000001f0: 2e3a 633d bc0a 4b3d a095 303b f815 533d
00000200: f4bc 883c ec01 293d c4db d83c 484c f23c
00000210: 6cc4 b63c a479 003d 12f5 603d 1437 c83c
00000220: 3c4c 23bd e861 bc3c 2ea0 7f3d 8e3e 543d
00000230: 3c73 213d 641a c2bc d6e2 7c3d 48e4 3a3c
00000240: 5cb4 09bd 80dd 19bb a0fc 393d 1a16 6bbd
00000250: 989c 6abc d6d4 3e3d a820 8dbc bcc1 cebc
00000260: 9008 8abc 70c7 a73c a889 45bd 888c 013c
00000270: a498 833c 242c 873c 40fa a5ba 34f3 fb3c
00000280: 20c7 71bb fe8f 463d b47b 293d cce4 30bd
00000290: 681b 48bc 861a 473d 8054 cdbb e09b 9cbc
000002a0: 203d 80bb 2858 6bbc e0a8 b2bc 1094 623c
000002b0: f6b6 573d 2870 143c 1cf3 0f3d 42a9 453d
000002c0: 7897 26bd 1416 36bd f8e8 16bc a085 983c
000002d0: f07b f8bb 34f3 efbc aa31 30bd 003e ef3a
000002e0: dc76 3e3d 60b0 303b d2da 733d 304f f2bc
000002f0: b063 6c3d f81f 24bd 3464 4b3d e099 df3b
00000300: 48a1 7e3d 5c9d 733d 1432 afbc 70c3 95bb
00000310: e407 8bbc e0cc 633c 505e fcbc 90f7 6dbc
00000320: 8e2a 1bbd fce8 1b3d 3e43 4a3d 8072 e13b
00000330: c04f f9ba 5602 40bd d63c 69bd 3487 45bd
00000340: 428c 3dbd 5ca2 52bd f00f f03c c247 43bd
00000350: 845b f53c 0c57 2a3d 0064 84b9 c096 723c
00000360: a8c7 1f3d c825 68bd 2220 5d3d 4e18 7c3d
00000370: 2049 743d 18df c7bc 0228 1d3d 5c52 bcbc
00000380: a849 1f3c 8a16 563d b889 563c e03c bb3c
00000390: 744e 88bc 7009 f3bc f2db 503d c20a 67bd
000003a0: 4013 333c 3008 c6bb fc36 90bc 3015 7abd
000003b0: 423a 18bd 401e 12bd 9054 1a3c a0b3 c73c
000003c0: c4b1 68bd c8e3 c4bc 561a 74bd be11 2f3d
000003d0: c034 6bbd a8fb 08bc d024 12bc 285e 0cbd
000003e0: 9ce8 373d 3c0c db3c 0e95 053d 8e77 343d
000003f0: d8ba ffbc f8b6 f73c a8ee 4e3d f81a 6bbc
0.01943022 0.045027643 -0.008097485 -0.0034850165 -0.058232717 -0.060212977 -0.042406328 0.03310193
0.031287998 0.02178523 0.033682205 -0.009418294 -0.042137988 0.044786006 -0.014492996 -0.011015087
-0.039084457 0.042538717 0.047651917 -0.03006614 0.05380951 0.040060915 0.017565124 -0.02975794
-0.041942254 0.008856013 0.027615286 -0.0409356 0.04708419 0.038715415 0.0010738596 -0.06245499
-0.04883813 0.044153422 0.005987756 -0.010254979 -0.0401339 -0.029121041 0.052225105 0.029753491
0.004933886 0.047686346 -0.036485627 -0.02109915 0.02216591 -0.047572836 0.05532197 0.040480413
0.010418676 -0.049432933 0.046789296 -0.022673763 -0.0099148825 0.05210416 -0.013687819 0.059303418
-0.006465368 -0.03742119 -0.0140828565 -0.05823119 0.03810323 0.029656708 0.011353143 -0.05472496
0.020140156 0.035493553 0.053670168 -0.026330031 0.02515161 0.029248975 -0.007904798 0.005625911
0.03950236 0.0051891506 -0.018453903 0.024059236 0.004188046 -0.020945959 -0.0063334927 0.036358424
0.06179197 -0.016500317 0.0485069 0.06032273 0.036723815 0.030719787 -0.05275114 -0.028883167
-0.025781542 0.06084586 0.009915441 -0.05313763 -0.055502795 -0.053735822 -0.045341298 -0.03774499
-0.0332881 0.046462893 -0.025647394 0.05748371 -0.014292374 -0.050491735 -0.022924162 -0.027709186
-0.042965703 -0.058295853 0.0021781921 -0.04852184 -0.017985292 -0.016427979 -0.036089867 -0.002367556
-0.048428647 -0.020318076 0.055320993 0.057804093 0.0050358027 0.0145341605 0.055520646 0.060015835
-0.029464863 0.009882942 -0.012368567 -0.042871088 0.055475406 0.049570784 0.0026944652 0.051534623
0.016691662 0.0412616 0.02647198 0.02957739 0.022310458 0.031366006 0.054921217 0.024440326
-0.039867625 0.022995904 0.06240862 0.05181747 0.039416537 -0.023694225 0.061739765 0.011406966
-0.03361927 -0.0023477972 0.045406938 -0.057394125 -0.014319561 0.046589695 -0.017227486 -0.025238864
-0.016849786 0.020480841 -0.048226982 0.00790704 0.016063996 0.01650054 -0.0012663081 0.030755617
-0.003689237 0.048477165 0.041377738 -0.043186948 -0.012213565 0.04860928 -0.0062661767 -0.019117296
-0.0039135367 -0.01436428 -0.021809042 0.013829246 0.05266472 0.009059943 0.035143957 0.04825712
-0.040671796 -0.04445465 -0.0092108175 0.018618405 -0.007583134 -0.029290773 -0.043016113 0.001825273
0.046500072 0.0026960596 0.059534855 -0.029578775 0.057712257 -0.04006955 0.049656108 0.0068237633
0.06216553 0.05947624 -0.021386184 -0.004570417 -0.016971536 0.0139038265 -0.03080669 -0.0145243555
-0.03788238 0.038063988 0.049380533 0.0068801045 -0.001902096 -0.046877228 -0.056942783 -0.048224643
-0.04627634 -0.05142437 0.029304475 -0.047675855 0.029950865 0.04158692 -0.00025251508 0.014806449
0.039008766 -0.056676656 0.053985722 0.061546616 0.05964005 -0.024398372 0.038368233 -0.02298849
0.009722151 0.05226759 0.013094358 0.022856176 -0.016638972 -0.029667586 0.050991006 -0.056406744
0.0109298825 -0.0060434565 -0.017604344 -0.061055362 -0.037164934 -0.03567338 0.009419575 0.024377644
-0.056810156 -0.024034396 -0.05959543 0.04274153 -0.057423353 -0.008360781 -0.00891991 -0.034269482
0.044899568 0.026739232 0.032612853 0.04405933 -0.031217024 0.030238613 0.05052057 -0.014349692

fc1.bias f4 [4]
00000000: bc11 893c 4caf 273d d224 603d 68e2 003c
0.01673209 0.04093866 0.054722615 0.007866479

fc2.weight f4 [2, 4]
00000000: 72d7 953e 50ec 473e 040c 353e a02c 80be
00000010: a46c b9be 6a9a f83e f090 d43d be25 e6be
0.29265934 0.1952374 0.17680365 -0.25034046 -0.362157 0.4855531 0.10379207 -0.4495067

fc2.bias f4 [2]
00000000: e452 3dbe 304b 4b3d
-0.18488652 0.04963225
